python/handrate-model.tflite (tflite, 216388 bytes, 20 tensors)

model_1/batch_normalization_2/batchnorm/mul f4 [64]
000000 e7 96 3d 40 c7 ff 1d 40 27 8e 01 40 95 d2 03 40
       2.9623353 2.4687364 2.0243013 2.059728
000010 52 ea 0d 40 d7 85 50 40 5e 47 e7 3f c2 8a 65 40
       2.2174268 3.258169 1.8068655 3.586594
000020 46 d4 2c 40 fc e0 3b 40 16 7e 26 40 33 a3 0f 40
       2.7004561 2.935607 2.6014457 2.244336
000030 d6 e9 24 40 bd 13 29 40 93 50 3a 40 26 8c 43 40
       2.5767722 2.6418297 2.9111679 3.055429
000040 b3 b3 11 40 85 d9 15 40 be ad 12 40 c4 f4 f7 3f
       2.276593 2.3414013 2.2918544 1.9371572
000050 b6 87 dc 3f fb d8 05 40 68 21 22 40 fb 96 20 40
       1.7228916 2.0913684 2.533289 2.509215
000060 b5 51 04 40 ac 69 e4 3f 1d 58 19 40 e6 ee da 3f
       2.067487 1.7844748 2.396003 1.7104156
000070 ab 29 2f 40 04 52 03 40 9b 46 f5 3f cf e2 3b 40
       2.7369182 2.0518808 1.9162172 2.9357183
000080 13 ab 20 40 25 20 02 40 dc e3 1f 40 a1 37 2f 40
       2.5104415 2.033212 2.4982824 2.7377703
000090 a0 0f 3a 40 35 44 e4 3f 44 2d 06 40 58 a8 0c 40
       2.9072037 1.7833315 2.0965128 2.197775
0000a0 0c 0e ee 3f 94 fb 19 40 dd 36 22 40 1e 9e 12 40
       1.8598037 2.40598 2.5345986 2.2909007
0000b0 68 fa 02 40 d4 dc 0e 40 bf f2 ff 3f bb 3a 0f 40
       2.0465336 2.2322283 1.9995955 2.2379596
0000c0 a8 5f 1c 40 02 07 19 40 17 99 d4 3f 1d de 2c 40
       2.4433384 2.3910527 1.6609219 2.7010567
0000d0 cd 17 04 40 ba 55 1b 40 7b 2c e3 3f 66 7a 13 40
       2.0639527 2.4271073 1.7747949 2.3043456
0000e0 ed 2a 07 40 cc e9 56 40 ed 11 06 40 c8 a8 0b 40
       2.111995 3.3580198 2.094844 2.1821766
0000f0 3e 15 f3 3f f6 0e 13 40 ae 18 f9 3f 0a 8f 17 40
       1.8990858 2.2977881 1.9460657 2.3681054

model_1/batch_normalization_2/batchnorm/sub f4 [64]
000000 18 d2 55 be 75 d6 48 be a8 93 43 bf d1 dd 71 3e
       -0.20880926 -0.19613059 -0.7639718 0.23619772
000010 80 e2 e4 be 61 5f 31 3f 28 92 06 bf fd 34 47 be
       -0.44704056 0.6928616 -0.52566767 -0.19453807
000020 f7 4d cc bd 94 cc 15 3f 14 9c 59 3d 7b ed 2e bd
       -0.09975808 0.58515286 0.053127363 -0.042706948
000030 2a 42 ab 3d 77 19 00 be 4d 6d b5 3e bc be 44 bd
       0.08362229 -0.12509714 0.35434952 -0.04803346
000040 6f 0e 37 be 68 9e c3 3b 35 5d 94 3e 72 3c 29 be
       -0.178766 0.005969811 0.2897736 -0.16526964
000050 09 40 2b be a8 cb 53 be b8 bf 66 3b 61 cf 1b bf
       -0.16723646 -0.20683157 0.0035209488 -0.6086331
000060 ee a0 33 3e a8 9c 38 be 7a cf 12 3e 3c 70 a4 bd
       0.17541859 -0.1802851 0.14336959 -0.080292195
000070 db a4 1e bf e6 c4 16 3d 93 8b 90 be cd c0 35 3e
       -0.619703 0.03680887 -0.28231487 0.17749329
000080 e7 41 ae 3e 39 fd bb bd 82 44 55 3e 66 e1 41 be
       0.34034654 -0.09179158 0.20826915 -0.18933639
000090 f8 12 e4 be e8 9b 55 3e e2 bb a0 be d9 35 69 3f
       -0.44545722 0.20860255 -0.31393343 0.9109779
0000a0 f4 45 96 bb 2e 70 04 bf 23 e8 9e be ef 6e 2e be
       -0.004585976 -0.5173367 -0.3103648 -0.17034505
0000b0 d8 9a 19 bd 0c e4 89 be 5a e0 6a 3e 30 c7 45 be
       -0.037501186 -0.26931798 0.22937146 -0.19314265
0000c0 99 81 e9 be 7f c5 a9 3e 07 57 b8 3e b8 b7 f0 bd
       -0.45606688 0.3315849 0.36003897 -0.117537916
0000d0 02 b0 1c be b2 f2 c9 3b db 83 43 be c1 19 24 be
       -0.15301517 0.0061629647 -0.19093268 -0.1602545
0000e0 a3 75 82 3e 12 da 7f 3e cd ec 23 3f a1 d7 6a 3e
       0.25480375 0.24985531 0.64033204 0.22933818
0000f0 28 0d 68 3d dc 52 71 be f5 08 aa 3d d3 0d b5 be
       0.05665317 -0.23566765 0.0830249 -0.3536211

model_1/batch_normalization_3/batchnorm/mul f4 [64]
000000 77 9b b1 3f 04 24 ae 3f 46 c1 9d 3f 4a 44 a9 3f
       1.3875569 1.3604741 1.2324607 1.3223965
000010 47 cc 86 3f f5 4b be 3f 36 b8 94 3f 83 86 8b 3f
       1.053109 1.486693 1.1618717 1.0900425
000020 96 bc 77 3f f6 e7 8f 3f 13 e7 b0 3f 99 c9 84 3f
       0.96772134 1.1242664 1.3820518 1.0374023
000030 82 24 82 3f de 4b 92 3f 96 5a 88 3f e1 71 b7 3f
       1.0167391 1.1429403 1.0652645 1.4331628
000040 51 3c 9c 3f 90 d4 9f 3f 1e 7f 8f 3f 08 4c c2 3f
       1.2205907 1.2486744 1.1210668 1.5179453
000050 46 46 97 3f f1 f7 bc 3f a4 ed 9d 3f 34 65 99 3f
       1.1818321 1.4763166 1.2338147 1.198401
000060 a3 1a ab 3f b8 cf 83 3f ae 91 8d 3f 0c 6e a3 3f
       1.3367504 1.0297766 1.1060083 1.2767959
000070 26 2d a2 3f d5 bc 8b 3f 01 3e a9 3f 17 dc 9e 3f
       1.2670028 1.0917002 1.3222047 1.2410916
000080 e3 32 87 3f 63 b2 9d 3f 6b fd a6 3f d4 86 9a 3f
       1.0562404 1.2320064 1.3046087 1.2072396
000090 b2 a1 d8 3f 28 e0 91 3f c3 92 a7 3f 62 01 99 3f
       1.6924345 1.1396532 1.3091663 1.1953547
0000a0 da dd 95 3f cc a1 9a 3f 6e 27 99 3f 72 cf 8a 3f
       1.1708329 1.2080626 1.1965158 1.0844557
0000b0 10 63 a7 3f 8f 6e 95 3f 08 d6 dc 3f 3b ea 88 3f
       1.3077106 1.1674365 1.7252817 1.0696481
0000c0 b5 6c 77 3f a9 8b a7 3f 8c ad 9f 3f 51 5e 97 3f
       0.9665025 1.3089496 1.2474837 1.1825658
0000d0 7c 9a 96 3f 44 89 9d 3f ef 9e 89 3f c6 1a 96 3f
       1.1765895 1.2307515 1.0751628 1.1726921
0000e0 b4 91 9a 3f 09 24 85 3f 4c 1f 88 3f 5f e8 83 3f
       1.2075715 1.0401622 1.0634551 1.0305289
0000f0 61 6c 88 3f 8c e8 93 3f 85 84 d0 3f 43 42 9f 3f
       1.0658075 1.1555343 1.6290442 1.2442096

model_1/batch_normalization_3/batchnorm/sub f4 [64]
000000 ac 10 56 3e 71 eb 6b 3e 20 9f 47 3e c0 06 6e be
       0.20904797 0.23039033 0.19494295 -0.23244762
000010 cf 6e 7e 3e 0f f4 71 be 84 bb 3a 3e 22 32 5c be
       0.24846958 -0.23628257 0.18235594 -0.21503499
000020 0e a0 62 3e d5 c8 31 3e 2a 9c 33 be 7d 01 5b 3e
       0.22131369 0.17361768 -0.1754004 0.21387286
000030 21 de 3b be 9f 63 08 3e 67 68 3e 3e 46 68 27 be
       -0.18346454 0.13319252 0.18594514 -0.16348371
000040 f9 1f 45 3e 80 f8 89 be 02 79 64 be 60 1e 11 be
       0.19250478 -0.26947403 -0.22311786 -0.14171743
000050 a1 54 2a 3e e0 b1 42 be 56 cc 00 be 70 b8 3c be
       0.16633846 -0.19013166 -0.12577948 -0.18429732
000060 96 34 41 3e 05 3d 12 3e f7 e1 54 3e 50 f1 0c be
       0.18867716 0.1428109 0.20789324 -0.13763928
000070 b0 6e 2a 3e f7 92 27 be 0e 84 55 3e 04 0f 82 3e
       0.16643786 -0.16364656 0.20851156 0.2540208
000080 1f 25 1e 3e 97 e2 28 3e 28 22 82 be 5d 57 1f be
       0.15443848 0.16492687 -0.25416684 -0.1556067
000090 02 e3 2c 3e 90 0d 08 3e 25 17 61 3e d5 95 51 be
       0.16883472 0.13286424 0.21981485 -0.20467313
0000a0 88 c9 48 be df be 54 3e 71 13 81 3e 87 e7 37 be
       -0.19608128 0.20775937 0.25210145 -0.17959414
0000b0 64 80 0f be 90 f5 2e be 83 57 28 3e fa 13 30 be
       -0.14013821 -0.17085862 0.16439633 -0.1719512
0000c0 30 ae 79 be 0a fa 96 3e 1b 16 55 be 56 16 70 3e
       -0.24382854 0.2948764 -0.20809214 0.2344602
0000d0 bc 6e 88 be c3 a1 19 3e b1 62 57 be e8 dc 90 3e
       -0.26646984 0.15003113 -0.21033742 0.28293538
0000e0 44 37 31 3e 73 17 41 be ac 06 6b be 72 9a 62 be
       0.17306238 -0.18856601 -0.22951764 -0.22129229
0000f0 33 ab 23 3e 76 4f 60 3e ce 0e 39 3e fb 50 38 be
       0.15983276 0.21905312 0.18072054 -0.17999642

model_1/bidirectional_1/backward_gru_1/BiasAdd/ReadVariableOp/resource f4 [96]
000000 b4 7b 39 3b 09 52 20 3c 66 1b ae 3c 7b 23 59 3b
       0.0028302493 0.009785184 0.021253299 0.003313272
000010 5f 70 48 3c cc f2 6a bc bd 34 39 3c b7 89 04 3c
       0.012233823 -0.014340114 0.011304078 0.008089474
000020 e5 6d c3 3b 81 f9 95 3b 9e 95 9b 3b 33 71 3f 3c
       0.005964028 0.0045768623 0.0047480604 0.011684704
000030 c1 79 77 38 04 e0 00 3c 41 c5 1e ba 39 e9 67 3b
       5.900278e-05 0.0078659095 -0.0006056615 0.0035386814
000040 65 7a 34 3c 48 4e 8c 3c 67 0d 8f 3b 31 8c bf 3c
       0.011015509 0.017127171 0.0043656114 0.023382278
000050 b1 18 6b bb d7 35 0d bc b4 4b 40 3c c2 83 8d 3b
       -0.0035872872 -0.008618793 0.011736799 0.0043186853
000060 00 89 ba 3b 91 20 ed b9 bb 07 92 3c 0d 80 42 3c
       0.005692601 -0.00045228426 0.017825952 0.01187135
000070 75 22 d2 bb 51 d9 98 3b 62 57 fb 3a ef a6 83 3b
       -0.006412799 0.004664578 0.0019175822 0.004017703
000080 52 b6 51 3c 51 ec a2 bb 8a 58 a3 bc cc bd 2a bc
       0.012799816 -0.0049720188 -0.01993968 -0.010421228
000090 80 fa 7c 3c ab fc 80 3c 70 6b e3 bc 81 2b 95 3c
       0.015440583 0.015745481 -0.027761191 0.01820922
0000a0 8a 4a e3 3c 95 20 bf bb 3b 26 af 3c 28 f1 1b 3c
       0.027745504 -0.0058327415 0.021380534 0.009517945
0000b0 70 49 04 39 5c f2 30 3c da 00 8e b9 93 80 89 ba
       0.00012615859 0.0107999705 -0.00027084985 -0.0010490589
0000c0 0a f1 0c 3b 3d 06 c4 3b 6c d3 b5 3c 04 cb c6 3b
       0.0021505975 0.005982189 0.02219554 0.006066682
0000d0 0a a8 a6 3c a1 d5 1d 3c 09 dc 00 bb 0e 8f 12 bb
       0.0203438 0.009633453 -0.0019662401 -0.00223631
0000e0 cf ee 13 3c c5 cf 08 3c 7c 83 ea b6 1f 9d 20 bc
       0.009029104 0.008350317 -6.9890502e-06 -0.009803086
0000f0 c4 bd dc 3c 66 7e f9 3b 8b 4b 33 3b a3 83 96 3c
       0.026945956 0.007613945 0.002735826 0.018373316
000100 69 cc 2a 3c 05 0c c2 ba 78 e1 b2 3c fb 28 3a bc
       0.010424712 -0.0014804607 0.021836028 -0.01136231
000110 41 81 74 bb 55 f7 24 3b 03 9d 61 bc 72 46 ca 3c
       -0.0037308487 0.0025171835 -0.013770345 0.024691794
000120 65 a9 57 bb 47 5c 0a bd 1f 87 45 bb 6b 32 09 bc
       -0.0032907363 -0.03377941 -0.0030140353 -0.008373837
000130 b0 a9 e0 3a 3b c6 2e 3b dc 44 c2 3c 4c a4 ca 3b
       0.0017140415 0.0026668448 0.023714475 0.0061841365
000140 82 2e 44 bc 75 19 a0 3c 81 db 1e 3c a1 c2 10 bc
       -0.011973979 0.019543389 0.0096958885 -0.008835466
000150 68 db 39 bc bd 96 44 bc 42 87 f3 bc d6 bb 7c bc
       -0.011343814 -0.011998829 -0.029727582 -0.015425643
000160 6a f3 f7 3c 40 92 90 3c 61 75 f0 3c d3 f7 93 3c
       0.030267436 0.017647862 0.029352846 0.018062508
000170 31 75 29 3c e6 6a 99 bc 56 55 b7 3c 77 6c ce bb
       0.010342882 -0.018727731 0.022379559 -0.006299551

model_1/bidirectional_1/backward_gru_1/MatMul/ReadVariableOp/resource f4 [32, 96]
000000 e7 08 04 be 1b d8 4b 3e 12 f9 34 3e 8d 57 2c be
       -0.12894021 0.19906656 0.17673138 -0.16830273
000010 21 bd 30 be d6 b0 f3 3d 18 4e 9c 3d 01 1e 73 3d
       -0.17259647 0.11898963 0.07632083 0.059354786
000020 b3 d0 e1 bd 0b 63 6a bc 60 ee 2c 3e c2 29 84 3d
       -0.11026134 -0.01430584 0.16887808 0.06453277
000030 64 b3 5b bd ea 00 10 be f8 2f 0a 3e 87 7f bd bd
       -0.053637877 -0.14062849 0.13494861 -0.092528395
000040 d7 2f 1d be e5 31 17 3c 71 14 39 be 2d e0 47 bc
       -0.1535028 0.009228204 -0.18074204 -0.012199444
000050 f1 14 52 3e ca 52 aa bb dc 6c a5 bd 5e 58 34 be
       0.20515801 -0.0051978575 -0.08077404 -0.17611834
000060 32 13 f7 3c bf 2d 37 be 79 91 4d 3c 7f e7 bd 3d
       0.03016052 -0.17888544 0.01254689 0.0927267
000070 65 68 80 3d 0b 87 42 3d 8e f2 75 bc 6c fe d4 3d
       0.06269912 0.04749207 -0.015011443 0.104000896
000080 2e cf 02 3e 4c 58 dd 3c 47 31 01 3d 8f fc 53 be
       0.12774345 0.027019642 0.031541135 -0.20701812
000090 8a c6 1a be 65 cf 53 3d 94 27 08 be 31 eb 88 3d
       -0.15114799 0.05171146 -0.13296348 0.06685484
0000a0 32 1b 19 3e 07 15 62 be 22 48 8f 3d 1b 3d ee bd
       0.1495178 -0.22078334 0.0699618 -0.11632749
0000b0 23 c6 d6 3d fa e4 2a bd 85 3e 70 bd 9a f8 3b 3e
       0.1048701 -0.041722275 -0.058653373 0.18356553
0000c0 e2 a8 08 be 7c 15 c9 bd 12 30 29 bc fd 0f 4f 3e
       -0.13345674 -0.09818551 -0.010326402 0.20220943
0000d0 1d 76 4e 3e be 6d c8 3d b4 d9 1d 3e 44 17 ee bd
       0.20162244 0.09786557 0.15415078 -0.11625531
0000e0 44 13 29 3e dd 1c 50 be d4 dd 11 3e 64 e6 0b 3e
       0.16511256 -0.2032351 0.14244777 0.13662106
0000f0 67 84 19 be b1 0b 27 be 81 e0 ed 3c 09 60 4d be
       -0.14991914 -0.16313054 0.029037716 -0.20056166
000100 64 c2 58 3e 83 56 b3 bd 0a 92 f0 bd c4 e1 e9 3c
       0.21167904 -0.08756735 -0.11746605 0.028550036
000110 6c 59 ed bb 9c 42 45 be 9c a8 68 bd f4 06 4e be
       -0.007243326 -0.1926369 -0.056801423 -0.2011984
000120 d2 44 40 3e 57 95 4b be 00 ca f1 3c 0e e6 c0 3d
       0.18776253 -0.19881187 0.029515266 0.094188794
000130 f5 fe d3 bd 23 c7 1b 3e 2a 2e 39 be 88 ec 24 be
       -0.103513636 0.15212683 -0.18084016 -0.16105855
000140 93 af 1b 3e fb 8a 6d 3d 06 bd 8b bc a2 8b 3e 3e
       0.15203695 0.05799387 -0.017057907 0.18607953
000150 c7 83 24 bc 53 7a 1f be 20 96 33 be 4f 00 37 3e
       -0.010041184 -0.15574007 -0.17537737 0.17871211
000160 03 f5 ac bd 3e 0b 0e 3c a1 e2 13 3e f4 af 9c 3d
       -0.0844517 0.0086696725 0.14441921 0.07650748
000170 44 36 33 3e ba be 69 bd 97 6c 82 bd 80 71 62 3c
       0.1750117 -0.057066657 -0.06368368 0.013821006
000180 94 38 0e 3d 9a 9e 02 bd c1 8f ae bd f1 d4 00 3d
       0.034721926 -0.031889535 -0.08523513 0.031453077
000190 10 ab f5 bd 20 e6 64 be b9 93 b1 3c ee 38 5b 3d
       -0.11995518 -0.2235341 0.021676885 0.05352109
0001a0 16 5b c6 3d 3c b7 4b 3e b8 f2 1e 3d 83 22 26 be
       0.09685342 0.19894117 0.038805693 -0.16224103
0001b0 a1 88 08 3d 4d c8 bc bb a1 c8 13 bd ee 7a 9d 3d
       0.033333424 -0.0057611824 -0.036080007 0.076894626
0001c0 4b 36 11 3e 84 1f ad bd f8 2b 58 3e 8e a8 d8 bd
       0.14180867 -0.08453277 0.21110523 -0.10579024
0001d0 77 30 e5 3b 7c 89 63 3c ff b8 28 3a 28 60 0e 3e
       0.006994303 0.013887759 0.0006436258 0.13903868
0001e0 30 42 02 be ec 9c e9 bd 2c 17 8c 3d 83 9e e7 bd
       -0.12720561 -0.114068836 0.06840357 -0.113095306
0001f0 03 8b 93 3d d5 b0 2d 3e 2f 5b 22 3e 39 a5 0c 3e
       0.07204249 0.16961987 0.15855096 0.13734902
000200 44 a1 1d be 99 cf 10 3e 1e 5c 67 bb c3 cf c9 3d
       -0.15393549 0.14141692 -0.003530271 0.098540805
000210 a6 df 4f be e5 83 f8 bc ae 8f 30 be fc df 25 be
       -0.20300159 -0.03033633 -0.1724231 -0.16198725
000220 0d a3 32 3d 21 e9 3f 3e 60 e7 39 3e 00 1b 2f 3c
       0.04361253 0.18741275 0.18154669 0.01068759
000230 30 cc f2 3d b8 dc 27 be 53 e5 63 3e 14 be 20 be
       0.11855352 -0.16392791 0.22255449 -0.15697509
000240 19 b5 3f 3d 87 cc 79 bd 0b 0e e4 3d d6 c6 9d bd
       0.046803568 -0.060986068 0.11135491 -0.077039406
000250 2d 3a ff bd 43 71 82 3d fd 87 21 3e 65 20 39 3e
       -0.12462268 0.06369259 0.15774532 0.18078764
000260 38 78 36 bb 9b f9 c9 bd a5 5c 30 be 8f f1 26 be
       -0.0027842652 -0.098620616 -0.17222841 -0.16303085
000270 56 93 60 3e 0d 6c 3b 3a 1f e9 2d be 00 bd 08 3e
       0.21931204 0.00071495847 -0.1698346 0.13353348
000280 00 c9 12 be ed 99 8b 3c bc 49 f6 bd 6e 86 1c be
       -0.14334488 0.017041171 -0.120257825 -0.15285656
000290 07 a8 20 bd 59 26 5a be ad 6f 28 bd be 92 f7 bc
       -0.039222743 -0.21303691 -0.041122127 -0.03022134
0002a0 48 6a 61 be 42 08 94 3d e6 d7 ef 3d 3a c4 4e 3e
       -0.220132 0.072281376 0.11711101 0.20192042
0002b0 94 6d 06 be 61 0b fb 3c 1d 6d 4d 3e c0 30 1a 3d
       -0.13127738 0.030645074 0.20061155 0.037644148
0002c0 6e 10 f4 3d 26 c0 3c be 74 27 14 3e b9 f6 e2 bc
       0.11917196 -0.18432674 0.14468175 -0.027705537
0002d0 78 eb 2c 3e 1a 41 42 be ac bd 5a be 91 70 0b 3c
       0.16886699 -0.18970147 -0.21361417 0.008510725
0002e0 25 47 1d 3e 92 e8 04 3c 92 80 8a 3d 66 ca 64 bd
       0.1535917 0.00811209 0.06762804 -0.055857085
0002f0 ef db 9a bb 9f 7b ea 3d b2 71 f2 bb 54 5b 22 be
       -0.004725925 0.1144936 -0.0073988074 -0.15855151
000300 6a 17 e1 3d 62 90 bc 3d 23 1e 43 bd cc 60 09 be
       0.10990794 0.09207226 -0.047636162 -0.13415831
000310 a5 6f 23 bd d0 ce 50 bc fc 30 62 bd 1e b4 b9 bc
       -0.039901394 -0.01274462 -0.055222496 -0.022668894
000320 1a 91 16 3e cd dc 47 3e 23 79 36 bb 27 97 25 be
       0.1470379 0.19517823 -0.00278432 -0.16170941
000330 8a 48 ed 3d 6b 04 57 be 20 06 44 3d 0a 0b ae 3b
       0.11586101 -0.20997779 0.047857404 0.0053113746
000340 54 f4 f0 3d f1 f3 e2 bd 2c e8 ab bc 62 24 64 3e
       0.11765352 -0.110816844 -0.020984732 0.22279504
000350 f8 41 4b be 54 3d 47 3d 74 80 b9 bd 12 c5 81 3d
       -0.19849384 0.04864247 -0.090577036 0.06336416
000360 a4 2e 39 be e8 62 73 3b 2f 4d b2 bc b9 07 c7 bd
       -0.18084198 0.003713781 -0.02176532 -0.0971827
000370 95 fe 0a 3d 51 9a 4e be fe dd 23 3d 1f 1e 37 3e
       0.033934195 -0.20176055 0.04000663 0.17882584
000380 16 f5 b1 3c 58 ed b1 bd dc f2 c4 bc be 69 8d bd
       0.021723311 -0.08687848 -0.024041586 -0.06904934
000390 fa 7b de 3d d7 d1 5a bd 62 c4 f1 3d 2a 13 81 3c
       0.108634904 -0.053422775 0.11805035 0.015756208
0003a0 aa dd 72 bd cb 2a 46 be 17 7f 01 be 50 4d 4d be
       -0.059293427 -0.19352262 -0.12646137 -0.20049024
0003b0 a1 d6 17 be 8c a7 5f 3e ac 41 90 bd 99 98 1e be
       -0.14827968 0.21841258 -0.07043776 -0.15487899
0003c0 db f8 39 3e fb 25 31 be 0a 26 d0 bd a9 d1 d6 bd
       0.18161337 -0.17299645 -0.101635054 -0.10489208
0003d0 c8 e4 51 3e bb 54 03 bc 60 92 21 3e 72 bf 10 3e
       0.2049743 -0.008015807 0.15778494 0.1413553
0003e0 31 6d 02 3e 91 d8 1d bd f8 34 55 3c 4e 83 17 3d
       0.12736966 -0.038536612 0.013013117 0.036990456
0003f0 a0 eb 3c be eb 31 e4 3d e5 51 84 bd 34 62 5e 3e
       -0.18449259 0.111423336 -0.06460933 0.21717149

model_1/bidirectional_1/backward_gru_1/ReadVariableOp/resource f4 [32, 96]
000000 b8 4d 14 3e f6 7a 55 bc 3a 53 3c bc 93 03 b3 bd
       0.14482772 -0.013029804 -0.011494452 -0.08740916
000010 b0 07 55 3c 52 f8 12 3e 6f 8b 0d bd ed ce 43 be
       0.013002321 0.14352539 -0.034556802 -0.19121905
000020 cc f4 05 3e cf c9 a8 3d 5b f6 48 3e 1e d5 96 3d
       0.13081664 0.08241617 0.19625227 0.07364868
000030 ca 5f de bd 70 eb f6 3d 8a cb 12 3c 72 f2 0b be
       -0.10858114 0.12056625 0.00895966 -0.13666704
000040 72 4d 0e be 80 5e 8f 3d 3d 89 01 be 97 c0 80 3c
       -0.1389673 0.07000446 -0.12650008 0.015716834
000050 ec 77 d1 bd 56 0c a3 3d 61 e4 9c 3d 59 82 1d bd
       -0.102279514 0.07961337 0.07660747 -0.038454387
000060 c6 4a 79 bd 2d 27 5d be 98 c1 e4 bc f2 2f 0b be
       -0.060862325 -0.21596976 -0.027924344 -0.13592508
000070 b1 cf ef 3d 9c 62 71 bd e0 29 74 3d 0e 21 75 be
       0.11709536 -0.05893193 0.059610248 -0.2393839
000080 57 24 89 bc 4b 1e c8 bd 36 92 eb 3c 1b 7b a0 3d
       -0.016740961 -0.09771403 0.028756242 0.078359805
000090 23 ad 82 3d 1a 2b 39 be 30 68 ac 3d 92 bc 7f be
       0.063806795 -0.18082848 0.0841831 -0.24974278
0000a0 a8 08 e3 bd 4d 6b 06 bd 0a bd f9 3c e8 d7 ea 3d
       -0.110856354 -0.032817174 0.030485649 0.11466962
0000b0 4a 27 bc 3d 3e f8 3a 3d d4 30 29 3e 48 63 b2 3c
       0.09187181 0.0456469 0.16522533 0.021775857
0000c0 bd 03 d3 3b 3b dd 9f 3c fd 2e ff bc 94 10 00 3e
       0.0064396546 0.01951467 -0.031150335 0.12506324
0000d0 da fe 93 bd 3b fa e0 bd 5a e5 69 3c b7 df 18 bd
       -0.072263435 -0.10985228 0.014275873 -0.037322726
0000e0 5e 28 e4 3d d0 05 4c bd bb 25 0e 3e 58 d8 ff 3d
       0.11140512 -0.04981023 0.1388158 0.12492436
0000f0 2c 2e 73 b7 6a ea 6e 3d c7 52 85 3d 53 b5 59 bd
       -1.4494679e-05 0.058329023 0.06509929 -0.05315144
000100 d3 d6 14 bd 45 53 29 3e 90 f0 51 bd cb b4 a2 3d
       -0.036337685 0.16535671 -0.05125481 0.0794464
000110 6e 34 09 be 38 82 bd bd 4b 8d 16 3e e8 32 24 bd
       -0.13398907 -0.09253353 0.14702336 -0.04008761
000120 14 cd e4 3d 0c 9c 84 3d bf 5f bf 3d 55 80 28 3e
       0.11171928 0.06475076 0.09344434 0.16455205
000130 72 7f 0d 3d 66 5c 52 bd 8d 6f d5 3c c6 e4 e1 3c
       0.03454537 -0.05135765 0.026054168 0.027574908
000140 7d 0e ee 3d 4f 18 44 bd a2 d6 22 3d cd ca 1a 3d
       0.11623857 -0.047874745 0.03975547 0.037791062
000150 82 aa fd bd 1d 96 db bd 65 9a d7 bb 5d bd 9f bb
       -0.123860374 -0.10721991 -0.0065796846 -0.004874869
000160 78 8b 4c be 35 67 f8 bd dc fd 05 bd c2 0c d8 bc
       -0.19975078 -0.1212906 -0.032712802 -0.02637327
000170 09 6b 67 3e 63 5a 13 3e 6e 91 ab 3d 12 26 85 3d
       0.22599424 0.14389949 0.08377348 0.06501402
000180 55 61 51 3c e3 9b ff 3d 5f 8e 31 bd ce 3f ab 3c
       0.012779553 0.12480905 -0.043348666 0.020904448
000190 8d 7a 61 bd ce ec c2 bc de d7 ac bd cb 8d 11 bd
       -0.055048514 -0.023794558 -0.08439611 -0.035535615
0001a0 30 e0 0e 3c 4a 04 29 be c8 0c 0f 3e 71 b1 dd bb
       0.008720443 -0.16505542 0.1396972 -0.0067655374
0001b0 dc 2c 56 bd d7 51 18 3c 8c 95 95 bd cd b7 c6 3c
       -0.052288875 0.009296856 -0.073039144 0.024257565
0001c0 6b 67 ff 3d f8 5d 08 be 52 76 5b 3c 2b c3 88 bd
       0.12470897 -0.13317096 0.013394909 -0.0667785
0001d0 b5 2f 32 be f0 28 87 3d fd 70 aa 3d 8d 25 61 3e
       -0.17401011 0.06599605 0.08322332 0.2198698
0001e0 6d 97 46 3e c3 bb 6c bd b2 d1 20 3d d6 29 5d 3c
       0.19393702 -0.05779625 0.03926248 0.013498744
0001f0 d2 a0 a4 3d 89 cb 92 bc 4e a8 2d 3d 8e 30 10 3e
       0.080384865 -0.017919319 0.042396836 0.14081022
000200 92 32 25 39 7d 0f 6e 3d cd 71 fc 3d 9d 9f 08 bd
       0.00015754465 0.05812024 0.12326393 -0.033355344
000210 f5 06 ab bd 09 c2 05 3e 3f ca d2 3d 46 77 c0 3d
       -0.08350936 0.130623 0.10292482 0.093977496
000220 a7 30 ab bd 41 bc dc 3c 50 f7 54 3e 76 42 17 3e
       -0.08358889 0.026945235 0.20797467 0.14771447
000230 6b 42 34 3a 17 d9 6e 3c 3c 44 81 3d 15 5b aa 3c
       0.0006876352 0.014578125 0.06311843 0.020795384
000240 38 ea b5 bc d1 dc bc 3c 95 f1 c0 3a 68 e7 07 bc
       -0.02220641 0.023054512 0.0014720435 -0.008294918
000250 9e 94 19 be 08 5f 13 3e 95 0a b4 3d 0e 3e 7c 3d
       -0.14998099 0.1439172 0.08791081 0.061582617
000260 b5 8c 09 3e 50 62 06 bc 90 78 76 3d 6d df de 3d
       0.13432582 -0.00820215 0.06017357 0.10882459
000270 df a7 92 3d 34 3b 6b 3d 5a db 9b bd 15 37 56 3e
       0.07160925 0.057429507 -0.07610197 0.2091945
000280 23 f2 71 be 21 d3 21 be 7b 78 5c 3c 71 b2 e1 bc
       -0.23627524 -0.15803196 0.013456459 -0.027550908
000290 b1 d2 05 bd ed c4 5b 3d 6c 33 06 3e df 2d 71 3e
       -0.032671634 0.0536546 0.13105553 0.23552655
0002a0 ae f6 39 bb 9d e4 b5 3d aa 87 f5 3a 5e 86 9b bd
       -0.0028375792 0.08881495 0.0018732448 -0.07593988
0002b0 d6 7d 02 be 23 4b 93 bd 27 06 5e 3e b5 77 30 3d
       -0.12743315 -0.071920656 0.21682034 0.04308291
0002c0 6b b6 c4 bd 9e 95 12 be e1 58 4d be 44 1c 2f bc
       -0.09605106 -0.14314887 -0.20053436 -0.010687891
0002d0 3c ad 71 3d 71 f2 52 3d 42 83 8b 3d 77 c3 53 3e
       0.0590031 0.05150074 0.06812145 0.20680033
0002e0 d4 f5 eb 3d 3b 00 61 bd b8 91 af 3c a7 08 7d bd
       0.11521497 -0.05493186 0.021431789 -0.06177583
0002f0 78 dd 11 3e c5 84 91 bd bd e2 3b 3b 4b c3 ef 3d
       0.1424464 -0.07105402 0.0028669082 0.11707171
000300 b5 4a 1d be 1a 13 f6 3d b2 1c 5c be 62 26 bf 3d
       -0.1536053 0.12015362 -0.21495321 0.09333493
000310 d5 d2 aa bd 5b a1 1d bd 54 9e 20 be bf 8a bf 3d
       -0.08340994 -0.03848396 -0.15685397 0.093526356
000320 34 68 5e 3d 92 ed 91 3c a0 17 92 bd b1 fa 38 bd
       0.054298595 0.017813478 -0.07133412 -0.045160953
000330 a7 bf 19 bd d4 c1 e7 bd 0f 40 da 3d a3 d7 fb 3b
       -0.03753629 -0.11316267 0.106567495 0.007685618
000340 dd 94 a3 bd 21 eb a2 bd a6 e9 5c 3b 94 fd 96 3d
       -0.07987378 -0.079550035 0.0033708601 0.07372585
000350 c3 4b c1 3d 74 c6 e2 3d 31 92 b9 3a 53 bb a8 bc
       0.094382785 0.11073008 0.0014157948 -0.020597136
000360 2a 20 e7 3d 9f d1 95 bb fb b8 5a 3d ec e6 71 bd
       0.11285432 -0.004572108 0.053399067 -0.059058115
000370 6e fd b7 bd fd 01 88 bd b1 c4 0d 3c 28 91 37 3b
       -0.08983885 -0.06641004 0.008652852 0.0028010104
000380 bd 6a 87 3c 18 78 39 bd 09 6d 9c be be 87 21 bb
       0.016530389 -0.045280546 -0.30551937 -0.002464756
000390 62 0f 6c 3b e4 f7 74 bd f8 60 ce bd de 35 a0 3d
       0.003601991 -0.05980672 -0.10077089 0.07822774
0003a0 9a 1a 12 bd da e9 47 3d f3 1a c6 3d 80 b8 bf bc
       -0.0356699 0.048807003 0.09673109 -0.023403406
0003b0 37 be 21 be ff 66 64 3b 01 f9 a0 3d d9 eb b7 3b
       -0.15795217 0.003485143 0.07859994 0.005612832
0003c0 b7 73 1f be 5f 95 9e 3d f8 31 50 be 96 22 c6 bc
       -0.15571485 0.07743334 -0.20331562 -0.024186414
0003d0 5e 64 49 3d 61 d9 99 3d 43 8e 0c be d4 be 9c be
       0.049167983 0.07512165 -0.13726144 -0.3061434
0003e0 ba 53 bf 3b 0c d7 22 3e fd 4d 0f bd 19 37 06 be
       0.0058388384 0.15902346 -0.034986485 -0.13106956
0003f0 f0 40 f4 3d b2 17 0d 3c 90 0d e7 3d 5a c8 e9 bc
       0.11926448 0.008611606 0.11281884 -0.028537918

model_1/bidirectional_1/forward_gru_1/BiasAdd/ReadVariableOp/resource f4 [96]
000000 82 ac 99 3b 9f 7e c2 3b d6 10 18 3c a0 8c 00 3c
       0.004689754 0.0059355046 0.009281358 0.007846028
000010 62 e1 4e 3c 82 a4 3a 3c 35 b2 f5 bb 93 2d 74 ba
       0.012626978 0.011391761 -0.0074980506 -0.00093146524
000020 8c 67 7b 3c d1 b1 96 3c e5 89 51 3c d4 a9 3b bc
       0.015344512 0.018395336 0.012789224 -0.011454064
000030 9a 73 46 3c e5 6b f0 3b 7f d4 c8 3c a5 54 3b 3c
       0.0121125225 0.007337081 0.024515389 0.011433755
000040 c2 ee 39 3a 7f 17 bb ba 50 1f 01 3c 55 ef a6 3b
       0.00070927676 -0.001427397 0.007881001 0.0050944486
000050 1f f3 70 bb 4b b4 13 3c 62 d7 7e 3c 8c cd 9e bb
       -0.0036766005 0.009015153 0.015554281 -0.0048462804
000060 da 07 c5 b9 55 fb 81 3c 25 07 bf 3a 0c 96 88 bb
       -0.00037580618 0.015866915 0.0014574273 -0.0041682776
000070 af ef 6c bc 77 23 ad 3c b6 74 be ba e9 fa 41 3c
       -0.014461442 0.021135075 -0.0014530632 0.011839607
000080 86 65 78 bc 3f ae 6a 3b c3 a4 b5 bc 3c da 89 3b
       -0.015160924 0.0035809425 -0.022173291 0.004206924
000090 a4 25 34 3c eb ea 0a bc 7c 06 b6 3b 4b 77 47 bb
       0.010995302 -0.00847886 0.005554972 -0.0030436094
0000a0 da 93 03 bc e7 ba 23 bc 12 c5 28 ba 84 3f ef 3b
       -0.008030856 -0.009993291 -0.0006438057 0.007301273
0000b0 57 28 42 3c 6a 9f b7 bb a5 4c 5c bb 70 0f c9 bb
       0.011850438 -0.0056037204 -0.003361502 -0.0061358735
0000c0 ef 11 76 bb 12 ce 02 3c ad dc b6 bc ce 16 54 3c
       -0.003754731 0.007983701 -0.022322023 0.01294489
0000d0 d8 79 a9 3c 88 1a 43 3b f5 8e 97 3c a1 ed 55 bb
       0.020687982 0.0029770453 0.018500784 -0.0032642859
0000e0 80 77 15 3c fd 43 0b 3c b1 c9 61 3c 58 d5 63 3c
       0.009122729 0.008500096 0.013780997 0.013905846
0000f0 43 9b 02 3c 39 5c 0c 3b 09 ab b4 bb 98 14 68 3c
       0.007971588 0.0021417274 -0.005513553 0.014165066
000100 0d 94 e6 3a 65 08 7c 3b 89 47 d2 bc b9 7f dd ba
       0.001759173 0.0038457152 -0.025668876 -0.0016899026
000110 d2 8a 5f bc d9 a3 01 3d c0 7b cc bc 00 8a b8 bc
       -0.013643937 0.031650398 -0.024961352 -0.022526741
000120 bb 6d 8b bb dd 8e 8c 3c 3e fd 62 3c 96 81 8d 3a
       -0.0042550243 0.017157966 0.013854323 0.0010796066
000130 ed 58 ab 3c 06 ee 57 bb fb 10 d2 3c 33 21 07 3b
       0.020916427 -0.003294827 0.025642863 0.0020619154
000140 77 75 4a 3c 70 3b 7e bb 9d 5b 01 3d 4c 1c 0a bd
       0.012357107 -0.0038792752 0.03158151 -0.033718392
000150 52 2e 91 3c 49 de 3b bc 5c b9 5a bc 53 9d b9 bc
       0.017722283 -0.011466571 -0.013349857 -0.022658026
000160 fd 03 27 3c e0 76 5b bc fe a6 37 bb c0 0d 9b bc
       0.010193822 -0.013395041 -0.002802312 -0.018927455
000170 6b 50 21 bd ce c8 e1 3c 21 ad f6 bc 01 f6 24 3b
       -0.039383333 0.027561571 -0.030111851 0.0025171044

model_1/bidirectional_1/forward_gru_1/MatMul/ReadVariableOp/resource f4 [32, 96]
000000 76 ad 55 3d 1f 94 16 be 29 ad 9b bd a9 ab aa bd
       0.05216738 -0.14704941 -0.07601387 -0.08333523
000010 91 7f 39 be 96 43 b3 3c 69 14 a2 bd 9a 8a 93 3d
       -0.18115069 0.021882813 -0.07914049 0.072041705
000020 09 37 04 3e 95 cf 8d 3d d3 8c 38 3e 26 8e f7 bc
       0.12911619 0.06924359 0.1802247 -0.030219149
000030 cc 24 fe 3d 04 3f 1d 3e bd a4 81 bd 3b ff 19 be
       0.12409362 0.1535607 -0.063302495 -0.15038769
000040 39 41 45 3e f1 91 19 3e 62 c4 40 3e f3 9c ba 3d
       0.19263162 0.14997078 0.18824914 0.09111967
000050 83 48 59 3e ad 98 24 3e 36 61 3f bd a2 3e cb 3d
       0.21219067 0.16073866 -0.046723567 0.09924056
000060 26 21 5a bc 8b d9 d2 bd d8 60 f1 3d 27 69 24 be
       -0.013313567 -0.10295399 0.117860496 -0.16055737
000070 8e 1a b5 3c e0 33 e9 3d 93 70 85 3d f8 2e 0b be
       0.022107389 0.113868475 0.065156125 -0.13592136
000080 f5 fa ff 3c 6a 5d 59 3e 23 ef 69 bd 6d 7b 9c bd
       0.031247595 0.21227041 -0.057112824 -0.07640729
000090 3a 94 00 3e 2e 37 02 3d 68 18 1a 3e f9 68 1e be
       0.12556544 0.031790905 0.15048373 -0.15469731
0000a0 5f 87 65 bc f0 88 4f 3e d8 de dd 3d 01 2b 47 3e
       -0.014009326 0.20267081 0.1083352 0.19449998
0000b0 02 19 12 3e 84 aa d1 bd 5c d4 c6 3b 5e 35 52 3c
       0.14267352 -0.102376014 0.0060677957 0.012830107
0000c0 5a a3 3a be 03 14 e5 bd 98 3f 86 3b d1 99 16 be
       -0.18226376 -0.111854576 0.0040969364 -0.14707114
0000d0 9d 32 2b 3e cc 06 32 3e c7 13 c3 bd 0f 91 a2 3d
       0.16718526 0.17385405 -0.095252566 0.07937824
0000e0 b0 52 a0 3d b7 fc b0 bd 73 8e 52 3e df 3e 35 3e
       0.078282714 -0.086419515 0.20562153 0.17699765
0000f0 37 2d 41 bd 3e 30 08 bd 3a 99 ca bd 9c 16 80 3c
       -0.04716226 -0.033249132 -0.09892507 0.015635781
000100 62 07 28 3d 27 31 c7 3d 23 ad 8e 3d e2 cb 1b 3e
       0.041022666 0.09726172 0.06966617 0.15214494
000110 20 d4 6e bd 5d c9 1b 3e f9 79 c9 3d a7 49 a7 3c
       -0.058307767 0.15213533 0.098377176 0.020420862
000120 c1 45 9a 3d 5b 43 f2 3d d4 d7 03 3e 74 fa 84 3d
       0.07532836 0.11829253 0.128753 0.06493083
000130 de 95 ee 3d f3 14 05 3e 77 63 a1 3c d7 10 48 be
       0.11649679 0.12996273 0.019700749 -0.19537674
000140 89 b6 5e bc 4b 93 ec bd 7e b0 93 bd f6 b6 2a 3e
       -0.013593324 -0.115515314 -0.072113976 0.16671357
000150 98 83 fb 3d 9e 9d 9c bd 57 73 eb bd 4c 95 e4 bc
       0.12280959 -0.076472506 -0.11496609 -0.027903222
000160 7a 49 26 3e e0 29 17 be 57 29 28 3c 77 00 3b 3e
       0.16238967 -0.14762068 0.010263762 0.18261896
000170 29 d7 30 be 3e 5a 2e 3d 17 32 8a 3d 3d 62 6f bd
       -0.17269577 0.04256653 0.06747835 -0.058443297
000180 28 fa 3d be 08 b0 ff bd cd 01 94 3c e2 6b a2 3d
       -0.18552458 -0.12484747 0.018067265 0.07930733
000190 a5 75 af 3d b7 96 29 3e 1c 26 49 be 07 87 0e bd
       0.08567361 0.165614 -0.19643444 -0.03479674
0001a0 43 1a ec bd 4b 41 25 3e 80 df 05 bd 96 f8 54 be
       -0.115284465 0.16138189 -0.03268385 -0.20797953
0001b0 60 af 40 be f5 b3 de 3d cd ac 29 be 0d af cb bc
       -0.188169 0.10874168 -0.16569825 -0.024863744
0001c0 2f 8b 23 bd 2d e7 eb bc 7e 2c 55 bd bc bb 8d bd
       -0.039927658 -0.028796757 -0.052044384 -0.06920573
0001d0 cd df fa bd 6d ae 91 bd 4c e9 9b bd 7c 45 0f 3e
       -0.12249718 -0.07113347 -0.07612857 0.1399135
0001e0 27 d5 f0 3d b2 26 40 be 11 6f 00 be 81 f3 ee 3d
       0.117594056 -0.18764761 -0.12542368 0.116675384
0001f0 20 93 1b bb 18 92 4c be 9e 03 8b 3c 27 6c 25 bc
       -0.0023738816 -0.19977605 0.016969498 -0.010096586
000200 71 01 18 be 7b 54 3e 3d 77 31 2a be 92 d4 45 3e
       -0.148443 0.046467286 -0.16620432 0.1931937
000210 7f 2e 46 3e 49 0f 6d bc ed 5d 27 be 93 2c 77 3b
       0.19353674 -0.014468976 -0.16344424 0.0037715777
000220 82 4f 58 3d ff a7 84 bd 01 ee 0e be 6c be 06 3e
       0.0528102 -0.06477355 -0.13957979 0.13158578
000230 d4 31 ea 3d 30 7c 7a 3d c7 1e e4 3d 73 da b1 bd
       0.11435285 0.06115359 0.11138683 -0.08684244
000240 b0 81 92 bd 25 37 57 bc f6 22 38 bd 55 3c 4c 3d
       -0.07153642 -0.013135706 -0.044955216 0.049862225
000250 d7 ed cd bd ab 09 44 be d7 a5 af bd a6 ec c2 bc
       -0.1005513 -0.19144313 -0.08576553 -0.023794483
000260 0f e1 3d be 27 cf 75 bd 81 79 d4 3d a9 c5 14 be
       -0.18542884 -0.06001201 0.103747375 -0.14528526
000270 12 0f 56 be ad 12 03 be 02 cc 3a bc af 35 89 3c
       -0.20904186 -0.12800093 -0.011401178 0.016749231
000280 0a ff 9a 3d 05 ea 4a 3e 31 7e c9 3d e0 ed 14 be
       0.07568176 0.19815834 0.09838522 -0.14543867
000290 bf bd 0f 3e 51 b9 6f bd 94 f8 77 bd 55 7a ea 3d
       0.14037226 -0.05852634 -0.060539797 0.11449114
0002a0 55 ea 45 3e 49 a8 55 be 87 37 f3 3c 9f 97 33 be
       0.19327672 -0.20864977 0.029689563 -0.17538308
0002b0 14 50 8e bd 57 1f 1e bd 56 c6 28 be a4 bf 2d 3e
       -0.069488674 -0.038604107 -0.16481909 0.16967636
0002c0 e5 ff ea 3d 93 c5 6e be a1 9c 4b be 21 68 fb 3c
       0.11474589 -0.23317556 -0.19883968 0.030689301
0002d0 87 ce 1c be 29 20 3d 3d 4f 38 8c 3d b2 94 f1 3d
       -0.15313159 0.04617325 0.068466775 0.117959395
0002e0 b0 74 55 bd 18 d9 01 be 8e f0 7e bd a3 5e 03 3e
       -0.052113235 -0.12680471 -0.06224113 0.1282907
0002f0 96 1e 3a 3d 40 0e 00 3e 6b f4 95 3a 11 43 a3 3d
       0.045439325 0.12505436 0.001144064 0.07971776
000300 4d 38 96 bd 2b dd 2e 3e 99 b7 9e bb b9 d6 8f 3d
       -0.07334957 0.17076556 -0.004843664 0.07023377
000310 99 1d 1a be b3 4b 9c bc 59 87 41 be 8f 46 33 3e
       -0.15050353 -0.019079065 -0.18899287 0.17507385
000320 20 89 c6 3a f2 3a a0 bd d5 1b 21 be 6e 4a 19 3e
       0.0015147068 -0.07823743 -0.15733273 0.14969799
000330 73 42 86 bb b1 3e 2c 3e 97 e3 1b be ab 5e 46 be
       -0.004097277 0.1682079 -0.15223537 -0.1937205
000340 14 42 27 be 4f 22 31 3d 41 af 61 3e bd df 95 bd
       -0.163338 0.04324561 0.2203951 -0.07318065
000350 86 11 e8 bd 90 38 dd bd 1f d8 49 be 1d 68 43 be
       -0.11331467 -0.10801804 -0.1971135 -0.19082685
000360 5b 2d 56 be a3 0c 05 3e ed f2 1a be d0 17 32 be
       -0.20915739 0.12993102 -0.15131731 -0.17391896
000370 21 33 6a bd 85 75 ed bd d1 51 35 3d 26 04 25 bd
       -0.057177667 -0.11594681 0.04426748 -0.04028716
000380 eb 6b 51 be 0a b7 61 3e cc 34 b3 bd da 61 41 3e
       -0.20451324 0.2204248 -0.087503046 0.18884984
000390 db 4b 21 3c 16 1f 12 3e 25 3f 16 bc 7f be 4d 3e
       0.0098447455 0.14269671 -0.009170328 0.200922
0003a0 38 cd 1f 3d ab 93 44 be 96 fc 17 3e b8 08 24 be
       0.03901407 -0.19196956 0.14842448 -0.16018951
0003b0 b8 6a 03 3c 3c 52 3c be cd 28 2a 3e 7a 8c c9 bd
       0.008021049 -0.18390745 0.16617127 -0.09841247
0003c0 04 7d 97 bd 3f 54 ef 3d 66 a3 28 3e f3 ac d8 bd
       -0.07396892 0.116859905 0.16468582 -0.105798624
0003d0 67 49 4d bd 51 2e 94 bd 3a aa 23 be 8e 0c 01 be
       -0.05011883 -0.07235397 -0.15982905 -0.12602445
0003e0 0c 7e ad 3d a9 12 2f 3d bc 94 c0 3d ba cd ce ba
       0.08471307 0.042742405 0.09403369 -0.0015777864
0003f0 70 47 a7 bd 30 61 20 3e e5 af 2f 3e ff f3 f7 bd
       -0.081679225 0.15662074 0.17156942 -0.121070854

model_1/bidirectional_1/forward_gru_1/ReadVariableOp/resource f4 [32, 96]
000000 7f d9 08 3e 89 1b 30 bc 08 0f 17 3e 1f e4 ba 3b
       0.13364218 -0.010748752 0.14751828 0.0057034637
000010 02 cd 46 3e 81 ca 66 3c f6 0e 51 3d d0 31 89 3d
       0.19414142 0.014086367 0.05103966 0.06698954
000020 47 c9 1b 3e 57 43 ea 3d ac 5e e2 3c 5a 4f 4b bc
       0.152135 0.11438625 0.027633034 -0.012409056
000030 3e d0 34 3e 90 5a 5f 3d ea 5a 66 be 5d 36 84 3e
       0.17657563 0.054529727 -0.22495618 0.25822726
000040 03 91 52 bd 53 6c 4b 3d ab 49 71 be d5 5f 68 bd
       -0.051407825 0.049663853 -0.23563258 -0.056732018
000050 fd 39 87 bd 60 bb eb 3c 41 73 ed bd 96 44 85 bd
       -0.06602857 0.02877587 -0.115942486 -0.06507222
000060 ef c3 2a 3d a4 ae 12 3c bb 4d 1e bd 54 92 72 bd
       0.041690763 0.00895277 -0.03864835 -0.05922158
000070 96 4f 8e 3d 16 c2 53 bd 9b 54 7a bc e8 3d 88 3b
       0.069487736 -0.051698767 -0.015278961 0.0041577704
000080 a7 8a e7 bd 4f 54 47 3c cd e0 72 bc 18 2b 4a bc
       -0.11305743 0.012166097 -0.0148241045 -0.012339376
000090 db 5a ce bd cb f8 15 3c b9 8a f5 bd 50 f7 d1 3d
       -0.10075923 0.009153555 -0.1198935 0.10252249
0000a0 69 38 bd bb a4 7e 27 bd 84 7c 8e bd d0 be 36 3d
       -0.005774547 -0.04089226 -0.06957343 0.044615567
0000b0 f8 99 36 3e b7 7d fc 3c 6c da 83 3d 53 4f 85 bd
       0.17832172 0.030821664 0.06438145 -0.065092705
0000c0 fb cb 1b 3e 3d 34 4c 3c e3 f1 c1 bd 16 04 20 3d
       0.15214531 0.012463626 -0.09469964 0.039066397
0000d0 89 0d 00 3e 57 d7 a9 3d 60 11 0c 3e 0d 46 bf bd
       0.12505163 0.08293026 0.13678503 -0.09339533
0000e0 43 82 3c 3e 9f 5a 13 3e 66 6e 1b 3c 31 5c f6 3d
       0.18409066 0.14390038 0.00948677 0.12029303
0000f0 ca b2 32 3d 8b 5d db bd 30 b1 42 3e ce 5a 4d 3d
       0.043627538 -0.10711201 0.19012904 0.050135426
000100 64 0d cb bd fc 0e b4 bd 86 a9 c4 bc 56 23 07 bd
       -0.099146634 -0.087919205 -0.024006616 -0.032992683
000110 70 be 8e 3d 0c 7b 4c 3e 33 b1 20 be cf 97 b5 bd
       0.06969917 0.19968814 -0.15692596 -0.08866846
000120 6b 40 73 bd 0d e4 ed 3d 0d e6 a9 bd 76 59 bd bc
       -0.059387606 0.11615763 -0.08295832 -0.023113947
000130 c3 ab ef 3d 72 02 39 bb 4c ec 9d 3c 29 f5 fe bd
       0.11702683 -0.0028230217 0.019277714 -0.12449104
000140 ae b7 0e be a9 3d 58 bd 58 7b bc 3b 44 50 f9 3c
       -0.13937256 -0.05279318 0.0057520084 0.030433781
000150 08 f8 76 bd ad 85 a2 bd 3f ca 2d bd a1 84 8c bd
       -0.060295135 -0.07935653 -0.042429205 -0.068612345
000160 9a 73 6c bd c5 2e 99 bd 37 d5 8b 3d af b4 7e bc
       -0.057727434 -0.07479624 0.06827777 -0.015546008
000170 a2 51 18 3e ac 6d 72 3e 4e 52 f9 3d d4 5b 24 39
       0.1487489 0.23674649 0.121739015 0.00015674467
000180 56 7d 08 3e 1b 36 98 3d f8 20 19 3d c8 57 33 3e
       0.13329062 0.07432195 0.037384957 0.17513955
000190 f4 74 25 3d 30 81 36 3d 24 b4 f2 3c 79 cc 5f 3d
       0.04039474 0.044556797 0.029626913 0.05463836
0001a0 ec ba 2f be 0e 7a 68 bc 1f 8c a3 3d a3 e1 b7 3c
       -0.17161149 -0.014189256 0.0798571 0.02244646
0001b0 1a f4 16 3c 98 7f bd bc 1a 2b 03 bd c8 c2 8c 3d
       0.009213472 -0.02313213 -0.032023527 0.06873089
0001c0 09 fc 45 bd 69 91 32 3e c4 bb a8 bd f8 77 60 3d
       -0.048336063 0.17438282 -0.082389385 0.05480191
0001d0 0a ca dd bd 2a cd bb bd a8 17 84 3d 6c 5c 76 3d
       -0.108295515 -0.09169991 0.064498246 0.060146734
0001e0 07 80 84 bd 65 f2 85 be a4 4b a7 bc a6 1d 51 3d
       -0.06469732 -0.26161495 -0.02042181 0.051053666
0001f0 35 c8 4f 3d 83 c9 43 3e 9c bc 90 3d d6 10 49 3e
       0.05072804 0.1911984 0.070672244 0.19635329
000200 3d a4 c5 3b e4 a1 3e bd 5f 92 13 be ed 9e 79 3d
       0.0060315416 -0.04654111 -0.14411305 0.06094258
000210 c8 1d 09 be 61 18 b5 3d b9 be cc bd 66 b0 ea bd
       -0.13390267 0.088425405 -0.09997315 -0.114594266
000220 cb 16 2d 3e de 74 00 be 0b c6 3d 3d e3 f1 b0 3d
       0.16903226 -0.12544581 0.046331447 0.08639886
000230 e1 a5 32 3c e9 8a 25 be 11 70 4b be 40 2a bc 3c
       0.010903806 -0.16166271 -0.19866969 0.022969365
000240 3d 41 80 3d d8 e2 ca 3c 32 e3 61 be c7 35 95 bd
       0.06262443 0.02476637 -0.22059324 -0.07285648
000250 a9 97 01 be 19 fc 48 3d 38 fe f2 3d 1c c5 aa 3c
       -0.1265551 0.049068544 0.11864895 0.020845942
000260 be ca 11 3c 32 79 dc bd 46 7b c4 bb 0f 6c 70 3b
       0.008898435 -0.10765304 -0.0059961407 0.0036685502
000270 6b 23 a6 bd 94 88 c7 3d b2 bc d5 bd 37 f0 ed bb
       -0.08112224 0.09742847 -0.104363814 -0.007261302
000280 62 74 8e 3d 3a 80 35 bd 42 84 49 be da 67 b0 bd
       0.06955792 -0.04431174 -0.19679359 -0.08613558
000290 0e 15 27 be fd 80 a7 ba 79 26 ef 3c 07 cf dd bc
       -0.16316625 -0.001277953 0.02919315 -0.027076257
0002a0 6d ea 25 3e b0 6c 8c bd 5f a6 37 bd db c5 86 bd
       0.16202708 -0.06856668 -0.0448364 -0.06580707
0002b0 48 1d 2c bd e7 66 de bc cd 86 8e 3c 5a fb ee bd
       -0.042020112 -0.027148677 0.017398262 -0.11669035
0002c0 bb c5 ac 3d 5d 63 f6 3c 94 21 02 3e c8 eb dd bc
       0.084361516 0.030076677 0.12708122 -0.027089968
0002d0 01 c3 0d be 69 9c 32 3d 4b 77 ce bd 7d 7f 4b 3d
       -0.1384392 0.043606196 -0.10081347 0.04968213
0002e0 0e dc ae bd 92 69 3f be a1 1a 5f be e0 a0 4b be
       -0.08538066 -0.18692616 -0.21787502 -0.19885588
0002f0 6f 66 e3 bd f6 db 63 3c 95 90 bb ba 68 12 94 bd
       -0.11103522 0.013907423 -0.0014310057 -0.07230073
000300 29 58 71 be 87 20 d1 3d 2d 35 54 be 6e b3 f6 3d
       -0.23568787 0.10211282 -0.2072341 0.12045942
000310 d2 b1 a1 bd a6 a4 1e 3e 1e ca d3 bd f4 a8 8c bd
       -0.07895245 0.15492496 -0.10341285 -0.06868163
000320 c6 c8 45 3d bf dc 81 3b e5 9f 65 bd 8a e0 86 bc
       0.048287176 0.0039630826 -0.05606069 -0.01646449
000330 a0 d5 ee 3d cc 27 09 bd b7 14 bc bd a4 bf 2b 3e
       0.116618395 -0.03348522 -0.091836385 0.16772324
000340 d1 05 22 bd 9e 65 2e bb 79 81 91 bd 50 1d b0 3b
       -0.03955633 -0.0026610862 -0.07104773 0.005374588
000350 77 8f e3 3d 12 b3 f4 3d 84 0a 94 3d c9 3c e9 bd
       0.11111348 0.119482175 0.07228568 -0.11388547
000360 c4 90 4d 3e bd f2 0f bd 1b 00 c8 bc 0c ae 35 3d
       0.20074755 -0.035143603 -0.024414113 0.044355437
000370 b7 f5 90 3c 66 3a 19 3e 24 fc 84 3d 31 9e 39 3e
       0.017695291 0.14963683 0.064934045 0.18126751
000380 99 9b 36 3e f6 b4 84 3d f4 57 b3 bd 8a 0c ea 3d
       0.17832793 0.06479828 -0.0875701 0.11428173
000390 4d 49 33 bd 3b 46 38 bd 9f 87 fe bd 66 45 a5 3d
       -0.043771077 -0.044988852 -0.124282114 0.08069877
0003a0 72 a4 70 be 1d c6 72 3e 07 c1 c3 3b 48 cb f9 bc
       -0.23500231 0.23708387 0.0059739384 -0.03049244
0003b0 68 99 5a bc 83 a4 a3 ba 34 b8 0a bc 4c e7 9c 3d
       -0.013342239 -0.0012484941 -0.008466769 0.07661304
0003c0 b1 30 86 bc 2a e1 2c 3e c9 1e 40 3e 3a f4 41 3d
       -0.01638064 0.16882768 0.18761744 0.047352053
0003d0 ef ec 1d 3e ac fb e1 bd 39 7e 2a 3d b9 8b eb bd
       0.15422414 -0.11034331 0.04162428 -0.11501259
0003e0 11 1e 20 3e f3 20 ad bc 75 51 94 bd 18 df 85 bd
       0.1563647 -0.021133875 -0.07242099 -0.065366924
0003f0 97 6a 12 be 8c c8 b1 3d 3a 37 a3 bd 1e 96 f3 3a
       -0.14298473 0.086808294 -0.07969518 0.0018584167

model_1/bidirectional_1/forward_gru_1/zeros f4 [1, 32]
000000 00 00 00 00 00 00 00 00 00 00 00 00 00 00 00 00
       0.0 0.0 0.0 0.0
000010 00 00 00 00 00 00 00 00 00 00 00 00 00 00 00 00
       0.0 0.0 0.0 0.0
000020 00 00 00 00 00 00 00 00 00 00 00 00 00 00 00 00
       0.0 0.0 0.0 0.0
000030 00 00 00 00 00 00 00 00 00 00 00 00 00 00 00 00
       0.0 0.0 0.0 0.0
000040 00 00 00 00 00 00 00 00 00 00 00 00 00 00 00 00
       0.0 0.0 0.0 0.0
000050 00 00 00 00 00 00 00 00 00 00 00 00 00 00 00 00
       0.0 0.0 0.0 0.0
000060 00 00 00 00 00 00 00 00 00 00 00 00 00 00 00 00
       0.0 0.0 0.0 0.0
000070 00 00 00 00 00 00 00 00 00 00 00 00 00 00 00 00
       0.0 0.0 0.0 0.0

model_1/bidirectional_2/backward_gru_2/BiasAdd/ReadVariableOp/resource f4 [96]
000000 30 78 9e 3c d6 bf 0d 3d ea f8 87 3c 23 16 b6 3c
       0.01934442 0.034606777 0.016598184 0.022227352
000010 d3 c7 80 bb 5a ef 17 ba 21 e6 bb 3c 5a c8 e7 3b
       -0.003930071 -0.0005795859 0.022936882 0.0070734443
000020 d7 d9 b3 bc 22 5e 5d 3c 2e f8 8c 38 09 87 a9 ba
       -0.02195446 0.013511213 6.721947e-05 -0.001293392
000030 cb 96 7d ba 77 b5 b6 3c fb 6b aa 3b 95 ed 09 bc
       -0.0009673654 0.022303326 0.0052008606 -0.00841846
000040 12 9f 26 3c e3 f1 2b bb a0 4e 56 ba ed 06 58 bc
       0.010169761 -0.0026236705 -0.0008175168 -0.013185245
000050 0e 26 9a 3c b9 53 ce 3c 74 da 5a bc 4e 4a 8a bb
       0.018816974 0.025186406 -0.013357747 -0.0042202836
000060 91 4c 06 3a eb 8d 92 bc 57 dc 11 bc 0b 4e c1 3c
       0.00051231036 -0.017889937 -0.008902631 0.023596784
000070 10 27 27 3c 3c 1e b1 3c c0 70 22 bb 2b 96 5a 3c
       0.010202184 0.021620862 -0.0024786443 0.013341467
000080 d8 b6 46 bc f8 5c 32 bc 8b f9 48 3c e7 f6 8f 3c
       -0.012128554 -0.010886423 0.012266527 0.017573787
000090 9e 8c 98 bb e9 a3 ed bb 24 72 1a 3c a9 bb 21 3c
       -0.0046554348 -0.0072522056 0.009426627 0.009871402
0000a0 34 8e 58 bb d2 75 ed 3c e3 33 aa 3c ab 73 9e bc
       -0.0033043744 0.028986845 0.020776695 -0.019342264
0000b0 fe b6 1f 3c d5 a6 c5 3c 68 cb a7 bc 4c 77 fa 3c
       0.009748219 0.024127403 -0.020482734 0.030574463
0000c0 a8 e2 6c 3c e5 af 3a 3c d6 db a5 3b 99 4f 98 bb
       0.014458336 0.011394476 0.005061607 -0.0046481607
0000d0 d7 66 e2 3c f0 e6 e3 3b 14 cf 62 3b 6a b6 70 3c
       0.027636928 0.00695502 0.0034608291 0.014691928
0000e0 d8 f1 0c 3c 00 74 07 3d 72 43 be 3b 93 51 85 3c
       0.008602582 0.03306961 0.00580638 0.01627425
0000f0 d8 31 87 bc 67 5e e5 3b ed 8a 4e bb cc 64 69 3b
       -0.01650326 0.006999779 -0.0031515912 0.0035613058
000100 1f 12 ad bc 82 40 8a 3b aa 9c 19 3b 36 f9 de 3c
       -0.021126805 0.0042191157 0.0023439326 0.027218442
000110 3a 37 a1 bc a3 96 3d bc 9b 9d c5 bc 73 da 85 3c
       -0.019679654 -0.011571559 -0.024123004 0.016339516
000120 49 28 0b 3d 37 b0 e9 bc 39 35 1e bc d9 cb 31 3c
       0.033973966 -0.028526409 -0.009656244 0.010851824
000130 ba 8d e3 3c 14 44 f9 3c 48 b8 b5 bb 18 10 88 3c
       0.027777541 0.03042797 -0.0055456497 0.016609237
000140 62 88 19 3c bb b5 72 3c 61 44 4a bc fb a7 6f 3c
       0.009370895 0.014813836 -0.012345404 0.014627452
000150 c6 7d 9f bb 39 00 73 bc 0e 16 e9 3b a7 c2 74 3c
       -0.0048672883 -0.014831596 0.007113225 0.014938987
000160 bb 91 f7 3b 32 1b fc bb 89 67 8c 3b e4 2a 6a 3c
       0.007555214 -0.0076936716 0.0042848033 0.0142924525
000170 86 74 be bc bc 47 82 bc 8f d9 e7 bb ce f5 89 3c
       -0.023248922 -0.015903346 -0.0070754956 0.016840842
