python/handrate-model-full.tflite (tflite, 961832 bytes, 22 tensors)

encoder_lstm_2/lstm_cell/bias f4 [512]
00000000: ac72 a43c b421 0cbd a39b 6e3d 2cf5 0a3d
00000010: 6104 83bb 430b 32bd ee81 4cbb cc01 9abc
00000020: a172 05bd bcd2 463d 0724 45bd cdde 193c
00000030: abf9 6bbc 0eb9 20bc 8e8c 06bd aaa3 0ebd
00000040: 11a5 23bc fe57 18bd 46a0 e6bc 4e64 093d
00000050: 7325 6fbc 1aa3 46bd 6271 d4bc 6172 9fbc
00000060: 3610 053d e73f 21bc 7b4c 84bb c77a 973d
00000070: ad17 acbc b26f c93c 7f5e c5bb 24e4 4ebc
00000080: a746 99bb 1b91 3ebd 104a 54bb f52e 03bb
00000090: 3d7c 4f3c b43a 2bbd 381e 12bd 9baf a6bc
000000a0: 7e7c 70bc 3604 d0bc cb02 29bb ce58 14bd
000000b0: a93a 0cbd 4799 e1bc 8307 c6bc e8ff ad3c
000000c0: 0333 c53b 5d9a 64bc 01a4 bc3c 055e 0dbd
000000d0: 051f 823b 44fa 813c 83bd 5f3c abae 17bd
000000e0: cfd7 3d3c d475 f3bc 5410 65bc 23da 9cbc
000000f0: 41db 1c3d f64a f8bc b272 e4bc 725a 19bc
00000100: 08c2 863d e536 fb3a fba8 90bb 3066 cdbc
00000110: f55d 17bd 5dda c6bb eb3c e7bc 18a9 8abc
00000120: 8b72 5ebc 823d eabc 483c 5abc 4724 4ebd
00000130: fec2 f0bc 48db fc3b fe40 043d 43e8 0cbd
00000140: d55e 3e3b bc9b 45bc 69f2 c4bb 5a75 323b
00000150: 910c ca3c d49b c0bc 21b5 24bd 6a7d b13a
00000160: ba6d d9bc c041 ed3b 173b af3c 1b04 02bd
00000170: 040f 69bd 70cd d33d e008 94bc 7988 cc3c
00000180: 1a1f 6abd 011e 66bd 04ad d33b 75b6 903c
00000190: 197d 813c 144c 87bd 0ca3 dd3c 5501 7fbc
000001a0: dd61 6cbc 0fa8 babc 774d 8dbc fc63 c63c
000001b0: b47e c2bb a830 633b 92de 673c d132 063b
000001c0: d166 81bb 06ee 2c3d df81 2c3d b79e d23a
000001d0: 3395 493c db6c 55bd f025 9b3c e473 caba
000001e0: 8b31 d2bc eb4f cf3b f311 c2b9 29a5 30bd
000001f0: 75cc 0cbd 2c34 a6bc 7b09 febc 3263 04bd
00000200: a894 803f d060 773f 6ffb 873f 00d2 843f
00000210: 0fe4 7a3f 726c 793f addf 803f 4e52 7e3f
00000220: 208a 803f 7b2d 813f 9190 783f 7cea 813f
00000230: bb1b 7d3f bd46 7c3f 9ebd 783f 10b8 773f
00000240: e8a6 7f3f 7187 7b3f 40ca 753f e240 803f
00000250: 8da8 773f b9d9 753f c4c6 7e3f 13fd 783f
00000260: 7daa 843f fc77 7f3f 071b 793f c7de 863f
00000270: 6711 7b3f 539d 813f 1595 7f3f e473 7f3f
00000280: 2cbe 7d3f 7d24 783f eaa7 813f 8360 803f
00000290: 6cd7 7f3f c078 783f 26ff 7b3f 65e8 783f
000002a0: be29 813f 1bf4 7e3f 6152 793f 4a37 793f
000002b0: 8689 7a3f fbf8 783f b552 7f3f eb56 833f
000002c0: 70ab 7e3f e7c4 7b3f c7df 823f 2a88 763f
000002d0: bc79 7b3f addd 823f 4da7 823f e143 763f
000002e0: 9168 803f 7411 7c3f c7b3 803f 3e86 7e3f
000002f0: c560 833f 1664 793f 2063 7b3f 3ba9 743f
00000300: 585b 883f 3fde 803f 7e48 7a3f 970a 7b3f
00000310: 3735 7b3f ebde 813f 4870 7b3f d048 7c3f
00000320: a2fe 813f ccdb 763f eabc 7b3f d205 763f
00000330: 1933 7f3f 4e28 813f 7e24 823f 424d 7c3f
00000340: b3e2 7f3f 66f0 773f 86dc 813f bdae 803f
00000350: 5ad4 813f dbaa 743f 7e78 793f 7010 7e3f
00000360: 793b 813f cb97 7d3f 0e8f 833f 68ad 763f
00000370: 58da 763f 48d5 8e3f 4e84 7f3f f55e 843f
00000380: a235 713f 2dee 793f fa43 803f 4477 813f
00000390: 67ec 813f 2f04 773f 1d28 813f 8062 763f
000003a0: b7bf 813f 65fb 7b3f 146e 7f3f 5b2d 7c3f
000003b0: 9d3c 7e3f b573 7b3f 8c1e 7e3f e70c 823f
000003c0: 919e 7c3f 14d6 843f 6da0 823f 9c47 813f
000003d0: 5c1c 823f cb06 763f 1e2f 853f 5bbc 813f
000003e0: 737d 783f 4d30 7d3f fbb3 7d3f da5c 793f
000003f0: 3d7f 7f3f bb3e 803f cd1a 7b3f afd5 7f3f
0.020074211 -0.03421183 0.058253895 0.03392522 -0.0039983247 -0.04346777 -0.0031205374 -0.018799685
-0.03258002 0.048540816 -0.04813006 0.009391499 -0.014402787 -0.0098097455 -0.032848887 -0.03482405
-0.009988085 -0.03719329 -0.028152596 0.033542924 -0.014596331 -0.04849539 -0.025932971 -0.01946372
0.032486163 -0.009841896 -0.0040374375 0.07396465 -0.021007383 0.024589393 -0.0060232277 -0.012627635
-0.004677612 -0.046525102 -0.0032392778 -0.0020017002 0.012663898 -0.04180403 -0.03567335 -0.020347407
-0.014678119 -0.025392633 -0.0025789018 -0.036217503 -0.03423563 -0.027538909 -0.024173504 0.02124019
0.006018044 -0.013952819 0.023027422 -0.034513492 0.003970983 0.015866406 0.013656023 -0.03703181
0.011587097 -0.02971927 -0.013980944 -0.019146984 0.038295034 -0.030309182 -0.027886722 -0.009359943
0.06579977 0.001916614 -0.0044146753 -0.02507314 -0.03695484 -0.0060685114 -0.02822729 -0.016926333
-0.013577114 -0.028593782 -0.013320036 -0.050327566 -0.029389855 0.00771657 0.032288544 -0.03440119
0.0029048224 -0.012061056 -0.006010343 0.0027230592 0.024664195 -0.023511805 -0.0402118 0.0013541405
-0.02654158 0.007240504 0.02139048 -0.031742197 -0.056899086 0.103419185 -0.018070638 0.024967419
-0.057158567 -0.056180958 0.006459834 0.017665127 0.015806722 -0.066063076 0.027055286 -0.015564282
-0.014427629 -0.022785215 -0.017248852 0.024217598 -0.0059355143 0.0034666453 0.014152186 0.0020477066
-0.0039490242 0.042219184 0.042116042 0.0016069029 0.012303638 -0.052105766 0.018938988 -0.0015445915
-0.02565839 0.0063266656 -0.00037015937 -0.04312626 -0.034374673 -0.02028855 -0.03101038 -0.032321163
1.0045366 0.966321 1.0623606 1.0376587 0.9800424 0.974311 1.006826 0.99344337
1.0042152 1.0092005 0.9709559 1.0149684 0.9887044 0.9854544 0.9716433 0.9676523
0.99864054 0.9825354 0.96011734 1.0019801 0.96741563 0.96035343 0.9952204 0.9726116
1.0364529 0.99792457 0.97306865 1.0536736 0.9807343 1.0126137 0.99836856 0.9978621
0.99118304 0.96930677 1.0129368 1.0029453 0.9993808 0.9705925 0.984362 0.97229606
1.0090864 0.99591225 0.97391325 0.9734999 0.97866094 0.97254914 0.99735576 1.02609
0.9948034 0.98347324 1.0224541 0.9630152 0.98232627 1.02239 1.0207306 0.96197325
1.0031911 0.9846413 1.0054864 0.9942359 1.0263907 0.97418344 0.9819813 0.95570725
1.0652876 1.0067824 0.97766864 0.98063034 0.98128074 1.0146154 0.982182 0.98548603
1.0155833 0.96429133 0.98335135 0.9610263 0.99687344 1.0090425 1.0167387 0.98555386
0.9995529 0.96851194 1.0145423 1.0053326 1.014293 0.95573205 0.9744948 0.9924383
1.0096275 0.9905974 1.0278032 0.96358347 0.96426916 1.1158838 0.99811256 1.0341479
0.9422246 0.9762905 1.0020745 1.0114522 1.0150269 0.9649076 1.0090367 0.9624405
1.0136632 0.9843047 0.9977734 0.98506707 0.9931124 0.9822343 0.9926536 1.0160187
0.98679453 1.0377831 1.0205208 1.0099978 1.0164905 0.96104115 1.0405004 1.0135607
0.9706642 0.98901826 0.99102753 0.97407305 0.99803525 1.0019144 0.9808777 0.9993543

conv1d/bias f4 [128]
00000000: ce66 0abb aaa3 953a f516 bcba 82e0 173a
00000010: 4cff ff3a 0add bc3b ab46 8a39 ed4d 0d3b
00000020: cadb 8639 d6b4 c1b9 5c26 d03b 6b09 31bb
00000030: d6fe 383a 034b 623a d35c 493a 180a bb3b
00000040: f1c9 8c3a b130 583b 6452 403b 72bb b53a
00000050: 9604 613a 04a5 47b9 53a1 9f3b 1c57 2e39
00000060: 78e1 91ba b4eb 583a 8302 023b fa79 333b
00000070: d103 d13a 990e c8ba 3c16 ba3a c35d 7839
00000080: b482 ba3a 996b e039 6217 d13a 2ac7 993b
00000090: 4da7 83ba 0985 82ba 55b2 27b9 2898 08bb
000000a0: 62c4 f638 a717 3d3b 5f4a 963b 17a4 d1b9
000000b0: 323d 893b 65b0 423a e748 9cba 9f77 f639
000000c0: d90c 2b3b 7978 973a 66f1 14bb 0b7e 263b
000000d0: 3225 3a3b 9022 ca3a 07fa a5b9 2c62 843a
000000e0: 4a5e e43a dba1 033b c74e ceba 5dbb 163a
000000f0: 2f09 85b9 145a ac3b f0c6 e53a b37b ed3a
00000100: 13f8 6e3b bb91 a4b9 c4f7 6a3b 7ede a738
00000110: 542a 97ba af94 50ba 6dc0 783a 0463 863a
00000120: d343 c1b9 ce1a 3a3a ccd7 733a 6123 773a
00000130: 1e65 7f3b 9b22 9c3a d564 35ba 5e46 ab3b
00000140: 0c93 0638 2773 ef3a 0122 1cb7 d5f0 4f3b
00000150: 01db a238 1b74 d6b8 e401 04ba 9453 2839
00000160: 0761 523b 29f9 a63a a5e8 4536 db92 1a3b
00000170: c5a2 873b 0273 ee3a e96f a03a 5ae7 523b
00000180: 9c7d e13a 23cc c2b9 ed34 f83a 4737 c83a
00000190: 7760 2f3a 6985 9c3a 7da4 df3a 09db 293b
000001a0: ac7b 643b ac95 32ba 84fe 613a 6196 3d3a
000001b0: 0857 f33a 1b27 b63a 6574 3b3b ec8d c9b9
000001c0: 0d21 d03a 7daf 1d3b 8567 0aba 7295 363a
000001d0: 5bd2 dd3a 51ad bb3a b6c7 183b 7637 be3a
000001e0: 4825 4e3a defa 953a 87c9 e239 44a4 073b
000001f0: a2df fbb9 e41b 58ba 894e 12bb 4d9a a3ba
-0.0021118405 0.0011416574 -0.0014350103 0.0005793647 0.001953104 0.0057636546 0.00026374063 0.002156134
0.00025722227 -0.00036946562 0.006352229 -0.002701367 0.00070570165 0.00086323934 0.00076813734 0.0057079904
0.0010741336 0.0032988007 0.0029345984 0.0013865067 0.0008583752 -0.00019039592 0.0048715263 0.00016626384
-0.0011129817 0.00082748686 0.0019837923 0.0027385936 0.0015946572 -0.001526314 0.00141973 0.00023686052
0.0014229626 0.00042804776 0.0015952403 0.0046929317 -0.0010044366 -0.000995786 -0.00015992795 -0.0020842645
0.00011766773 0.002885321 0.0045865024 -0.00039985843 0.0041882033 0.00074267975 -0.0011923582 0.000470099
0.0026100187 0.0011556289 -0.0022726892 0.0025404717 0.0028403518 0.0015421677 -0.00031657537 0.0010100058
0.001742312 0.0020085487 -0.001574003 0.0005749965 -0.0002537458 0.0052597616 0.0017530601 0.001811853
0.0036463782 -0.00031389095 0.0035853246 8.004623e-05 -0.0011533 -0.0007956726 0.0009489123 0.0010252898
-0.00036862362 0.0007099331 0.00093018706 0.0009427574 0.0038970183 0.0011912169 -0.0006919627 0.0052268943
3.2085038e-05 0.0018268571 -9.306242e-06 0.003172924 7.7655546e-05 -0.000102259415 -0.0005035682 0.00016052864
0.003210129 0.001273905 2.9490704e-06 0.0023586068 0.0041392767 0.0018192234 0.0012240383 0.0032181353
0.0017203572 -0.00037154657 0.0018936672 0.0015275263 0.00066900946 0.0011941615 0.0017062571 0.0025917909
0.0034863753 -0.0006812464 0.00086209946 0.0007232186 0.0018565366 0.0013897152 0.0028603312 -0.00038443448
0.001587899 0.0024060898 -0.0005279708 0.0006965018 0.0016923653 0.001431862 0.0023312396 0.0014512378
0.00078638317 0.0011442562 0.0004325623 0.0020697275 -0.0004804107 -0.0008243902 -0.0022324643 -0.0012481898

std.constant8 f4 [128]
00000000: 2eb4 0340 d410 8440 2b28 0940 8deb 2240
00000010: 20e3 4240 ebac 4e40 9793 0840 9457 3b40
00000020: 50be 6940 4e8d 7640 14bb aa40 53ec ff3f
00000030: da0a 9940 bc5c 6740 5874 6e40 5d68 6940
00000040: 4938 bb3f 5132 8240 be3a 8a40 e969 1340
00000050: f4d8 2d40 1077 7040 a232 1140 01f8 7d40
00000060: 938a 9840 71dc 1640 64b7 1940 582f 1140
00000070: 5713 5540 5c48 0440 0515 7d40 bc70 0d40
00000080: 5cdb f73f ea27 1b40 17c9 6c40 6a47 9440
00000090: 5bba 8d40 b56d 3c40 022f 1c40 3fe3 2a40
000000a0: bf88 8c40 787f 3040 3887 0840 8c01 f03f
000000b0: c3b5 8d40 dddd fb3f 7772 8140 7010 2840
000000c0: 6352 0440 eb73 0740 27dc 4240 3608 df3f
000000d0: c03c 1f40 9014 1740 0940 2240 1c91 6740
000000e0: a7cf 5e40 0244 1a40 c236 cd3f d1e4 2940
000000f0: 43a3 6040 55ff 2c40 862d 3340 cfd6 8b40
00000100: 3f64 e03f bfc4 8f40 8952 2d40 bb49 3e40
00000110: fd80 1140 a424 8140 d7d9 3640 a113 6840
00000120: 8088 1940 93bc 2640 6566 9c40 0515 f13f
00000130: 99ef 7e40 2f68 2d40 3d7e 3f40 569a 7b40
00000140: 6099 e63f 378b 5040 7da2 0640 13b7 e53f
00000150: 4040 0f40 e8a7 2140 8f98 7340 406f 8d40
00000160: a9f9 0b40 8201 7240 c577 3540 43d6 8640
00000170: 43d9 8b40 448e 3940 d20e 0140 d56b a540
00000180: 9ba1 3f40 1602 0b40 fb1b 9240 0f4c 1140
00000190: 10db 1840 2cae 2240 abda 0540 e28e 2940
000001a0: b313 2a40 9af2 1640 7ca3 0b40 f629 af3f
000001b0: 3409 f23f e9ca 0440 5a54 2740 3b24 ca3f
000001c0: 333b 3140 4959 2840 f93a 0440 3a3c 3c40
000001d0: 422e 5140 77d6 1840 e304 9440 a1f4 8f40
000001e0: 0a4b 1940 1d99 c33f 7e95 1b40 41e7 0940
000001f0: 9c08 0740 0e5f 6040 3bf3 3840 9aa3 4940
2.0578723 4.127054 2.1430767 2.5456269 3.0451126 3.229304 2.1340082 2.9272203
3.6522408 3.8523746 5.3353367 1.9993995 4.7825747 3.615035 3.725851 3.6469948
1.4626552 4.068642 4.3196707 2.3033392 2.7163668 3.757267 2.2687154 3.968262
4.766916 2.3572047 2.4018183 2.2685146 3.3293054 2.0669165 3.954408 2.2100058
1.9363818 2.4243112 3.6997736 4.6337175 4.4289985 2.944196 2.4403691 2.67012
4.3916926 2.75778 2.133253 1.8750472 4.4284377 1.9677082 4.0452228 2.6260033
2.0675285 2.11645 3.044687 1.7424381 2.488083 2.36063 2.5351584 3.6182318
3.481424 2.4104009 1.6032336 2.6545908 3.5099647 2.7030842 2.7996535 4.3699718
1.7530593 4.492767 2.7081625 2.9732502 2.2734978 4.0357227 2.857046 3.626198
2.3989563 2.6052597 4.8874993 1.883454 3.9833739 2.7094839 2.99208 3.931295
1.8015556 3.258497 2.1036675 1.7946495 2.2382965 2.5258732 3.8061864 4.4198303
2.187113 3.781342 2.8354352 4.213655 4.370271 2.8993082 2.0165296 5.169413
2.9942386 2.1720023 4.5659156 2.2702672 2.3883705 2.5418806 2.0914714 2.6493459
2.6574523 2.3585572 2.1818533 1.368468 1.8909059 2.0748847 2.6145234 1.5792307
2.7692382 2.6304495 2.0660994 2.941176 3.2684484 2.38809 4.6255965 4.498612
2.395205 1.5281101 2.4309993 2.1547396 2.1099005 3.5058017 2.8898456 3.1506104

std.constant9 f4 [128]
00000000: e856 d9bf 966f af3e 0cce f43f 658c a0be
00000010: 1f0f abbe 83f9 de3f c7e1 17c0 cc18 8d3f
00000020: a0ac 40bf d96d 0040 75be 3f3f 81d8 f9bf
00000030: f9f4 3cbf 0877 f43f dcef e4bf 9784 0440
00000040: 2958 df3f f5de babf 0a0e 04c0 e704 03c0
00000050: 64d0 07c0 999f dbbf ca01 f43f 258f 50bf
00000060: 8075 543b 4966 14c0 2d11 20c0 1e23 15c0
00000070: f866 babf b96a 0fc0 cd07 f8be 6d7e f4bf
00000080: 339f 13c0 365d fa3f 7411 3b3f 393f 083f
00000090: a084 633e e375 96bf a2f3 b5bf 2ae0 383f
000000a0: 40ff ccbf 9a98 a03f 73de d83f eaf3 f4bf
000000b0: 3513 9d3f ec83 13c0 590f 83bf 76b7 f03f
000000c0: 220f 943f c065 5cbf 8b40 8d3f bf99 f6bf
000000d0: e447 1f40 a48a 663f 29f3 1a40 a84a a7bf
000000e0: 83e8 84bc 67e6 0340 c7df cd3f 73eb b4bf
000000f0: be2d 54be 678e 293f 0dcd 6abe 9516 24bf
00000100: e6f7 1b40 284a e3bd adb0 803f fc5d bbbf
00000110: 41c1 773f 9860 9bbb d5f7 193f 6a4e c9bf
00000120: 38f1 1140 7e3d 17c0 357f a83f 27d4 0e40
00000130: a622 173f 3de5 ee3f 3347 2340 9c1f ba3f
00000140: c3ed 03c0 fd23 efbf 4732 01c0 123d 1340
00000150: 38eb febf 9039 bd3f d5ed 0e3e adf4 a03f
00000160: 154e 0d40 87a5 703f c259 bebf b054 b9bf
00000170: 2c3f 873f 5a30 1dc0 b2ec 1140 cf69 a73f
00000180: 8363 dabf 3614 9ebf a46b 0a40 1aa9 e0bf
00000190: cef3 1dc0 b0e4 ed3f b77e 15c0 8009 acbf
000001a0: 2719 0c40 e22c ccbf f81e 1340 974c f33f
000001b0: 252b b1bf 16c4 d7bf 5aac 5a3f be5f e53f
000001c0: 1cf7 d8bf fa2f db3f 4770 0a40 62e6 b4be
000001d0: fe1d c83d b620 22c0 c582 663f d028 90be
000001e0: da79 1cc0 49bd e53f 674f 0cc0 4048 0a40
000001f0: 5915 6fbf 1663 e53f a6c0 1dbe cc71 bcbf
-1.6979647 0.3426482 1.912538 -0.31357113 -0.33409974 1.7419895 -2.3731554 1.1023192
-0.75263405 2.0067046 0.7489999 -1.9519197 -0.738113 1.9098825 -1.7885699 2.0705926
1.7448779 -1.4599291 -2.0633569 -2.0471742 -2.1220942 -1.715808 1.9063046 -0.8146842
0.0032418668 -2.318743 -2.5010483 -2.3302684 -1.4562674 -2.2408888 -0.48443452 -1.9101082
-2.3065917 1.9559696 0.73073506 0.5322147 0.22218561 -1.1754726 -1.4214976 0.7221705
-1.6015396 1.254657 1.6942886 -1.9136937 1.2271487 -2.3049269 -1.0239059 1.8805988
1.1567118 -0.8609276 1.1035322 -1.926567 2.4887629 0.900553 2.4210913 -1.3069658
-0.016224151 2.0609376 1.6083916 -1.4134353 -0.20720574 0.66232914 -0.22929783 -0.6409696
2.4370055 -0.110981286 1.0053917 -1.4638057 0.9677926 -0.0047417395 0.60143787 -1.5727055
2.2803478 -2.3631282 1.316382 2.2316988 0.59037244 1.8663708 2.5512207 1.4540896
-2.0613868 -1.8682858 -2.0186937 2.3006024 -1.9915533 1.4783192 0.13957913 1.2574669
2.2078907 0.94002575 -1.4871142 -1.447897 1.0566154 -2.4560761 2.2800717 1.3079165
-1.7061619 -1.2349918 2.1628199 -1.7551606 -2.4680057 1.8585415 -2.335859 -1.3440399
2.1890352 -1.5951197 2.2987652 1.9007748 -1.3841292 -1.6856716 0.8541924 1.7919843
-1.6950412 1.7124016 2.1631029 -0.35332018 0.097713456 -2.5332465 0.9004329 -0.28156137
-2.4449372 1.794839 -2.1923463 2.1606598 -0.9339195 1.7920864 -0.15405521 -1.4722228

std.constant10 f4 [128, 128]
00000000: 0b65 a73d 3fa2 c1bd 2677 9ebd 4801 52bd
00000010: 49bb fd3c d5f9 ff3d b8f7 563d 9c06 1abe
00000020: 00a4 b53d 27da 6c3c e480 333d 6a21 d2bb
00000030: 0c08 acbd 66ea cebd 4f84 153d 32c7 8e3a
00000040: 20db 25bd ed0a 18bd 5c45 1bbd 8b56 9f3d
00000050: c52b dbbd 0468 1ebd c35a 4f3c ea2c bebc
00000060: cc41 f6bc 1d87 e1bc 3d02 543d 3a1d 4abc
00000070: 71f9 e5bd 382f 62bc 4140 9fbd d588 c1bd
00000080: 6419 7a3d 361d 193d 40a6 3abd dabf c13d
00000090: b7f5 863d 948e 27bd a54c a8bd bdb6 54bb
000000a0: a593 363c 2187 b63d 1240 56bc d3b3 bfbd
000000b0: 8601 c9bd 1215 ba3d 2daa f73c 81aa 903c
000000c0: 8bc5 ef3c db1b 14be b3b5 7d3c 65f9 033d
000000d0: 0d71 d8bd d6f1 8fbd 7602 023d 614e 2c3d
000000e0: 969f be3d 0c3a 7d3c f7b5 06bd 0baa 7e3d
000000f0: c7e8 babd 2029 42bd 5b10 88bd 8748 d5bd
00000100: a11a 01bd b5e6 06bd 6f22 90bd 08b9 123d
00000110: 1d4a ac3c a35b 9d3d ff01 3f3c 3768 3dba
00000120: 1d42 2bbd 9a7f 53bd 1c36 323d 6891 e6bd
00000130: 309a a1bd 77ff 7b3c 3c7a acbd 2c46 f8bc
00000140: 57b0 7b3d 9192 09bc ac59 c4bd e525 943d
00000150: 8db3 19be f881 5cbb cd5b 813d 044c 9d3d
00000160: 5f78 a6bc b065 e43c 282d 1dbd 1669 393d
00000170: 6f9a 9ebc fc8c a33d 8e97 b1bd 1b42 ad3d
00000180: 2990 edbd 09ee 883d 39b9 c93a bf36 15bd
00000190: fa68 923d decc 903d d13c 54bd 8422 cd3d
000001a0: c6f7 973d c3a2 f0bd 47ac c4bb 2da5 b6bd
000001b0: d51a 413d d7c1 bebc 419e 2b3d 22d5 973c
000001c0: 8744 023c 304d 823d 16ba 08be fb05 9e3d
000001d0: 0533 833d 9928 c2bd fe6c d83c d9c9 8dbd
000001e0: 6e11 ba3c 89ae 173d f1e0 863c 29bf ddbd
000001f0: 640a 623d e235 9fbc 4564 e9bd 16cf 88bc
00000200: e298 c9bd 7ae8 36bd c0da b2bd 53b0 d6bd
00000210: dd4a 0cbe fc26 343e 642d 8d3d 7827 09be
00000220: 2c3e 9e3d 94d8 28be d594 bf3c 7727 1f3e
00000230: 15f6 ebbd 037d 19be de87 aebd 9273 d83d
00000240: 2365 2cbe 6a03 5ebd 3d78 c5bd 1150 083e
00000250: 07d2 46be a83b 643d 58d5 2b3e 4b36 55be
00000260: f6c1 89bd ccc0 27bd ca7e 803d 49c9 acbd
00000270: 40d5 cbbd 97cf f6bc ccfe 18be 67e6 4dbd
00000280: 444a f03d 2934 5b3b 3b38 72bd 6744 f63d
00000290: a3ec c33d 1de8 99bc 9cc4 afbd cf7a f5bc
000002a0: 3fa4 ac3d 536e 143e 75fd 9e3d 542b 613c
000002b0: e64f bfbb 5047 f13d 92d6 4a3d 1c92 c7bb
000002c0: 2c92 063e 3d76 b0bd be90 e33d b2cc afbc
000002d0: 79e0 bebd 50e1 e2bd c4a1 dcbd 2e36 4d3e
000002e0: c9b7 ba3d 316a e0bd 0c7a 3ebc bc3c adbb
000002f0: 0e4e 5fbc ae30 54be f15b b3bd c89d cbbd
00000300: 226b 58bc df2a b0bd 0681 2ebc efdf 4e3d
00000310: c3bc cdbd c6a2 943d 16b3 183e d342 9dbd
00000320: 8019 2e38 e2d6 a4bc 913b a53d f1cb 723d
00000330: 20b8 61bd 7621 d63d 14f7 2fbe 7070 0abe
00000340: 04a1 e1bd 0277 acbc 213c 8d3d 6e7e 3e3d
00000350: 69db cdbd 5ff9 36bd f6d2 253e 1252 86bd
00000360: 7271 b7bd afc3 f0bd db12 cdbd 396e b33d
00000370: 8533 c2bc 2270 7fbd 504d c9bd 816e d33d
00000380: a526 5bbd b065 2f3e 1d27 80bd 7d63 4f3d
00000390: 6849 ea3d 7a10 983d d636 44be 4b5a f13c
000003a0: e591 ed3d 10a9 74bd 918c 99bd 0264 83bd
000003b0: c743 9d3b 37fb 24be 2351 07bc f171 8a3c
000003c0: 6159 a43d 540f 3f3e ea0f 85bd 8501 003e
000003d0: 91ba f53d 6701 aebd 0a34 073e a160 aabd
000003e0: 3663 0dbe ed1b a63d 0623 003e a4af 17bd
000003f0: bbaf 6fbc 7753 abbd bc28 1bbe 9b4f 0a3d
0.08173569 -0.09454774 -0.077375695 -0.051270753 0.030973094 0.124988236 0.052482337 -0.15041584
0.08869171 0.014456308 0.04382409 -0.0064126747 -0.08399972 -0.10103302 0.036503132 0.0010893105
-0.040492177 -0.037119795 -0.037907943 0.07780179 -0.10701708 -0.038673416 0.012655917 -0.023214776
-0.030060671 -0.027530247 0.051759947 -0.01233607 -0.11229218 -0.013805203 -0.07775927 -0.09449927
0.06105937 0.037381373 -0.045568705 0.09460421 0.06589835 -0.040907457 -0.08217744 -0.0032457553
0.0111436 0.089124925 -0.013076799 -0.093604706 -0.09814744 0.0908605 0.030232513 0.017659428
0.029269 -0.14463751 0.015485215 0.032220263 -0.10568438 -0.070285484 0.03174063 0.042066935
0.09307782 0.015455734 -0.03288838 0.062173884 -0.0912643 -0.0474025 -0.066437446 -0.10414224
-0.031519536 -0.032934863 -0.07037818 0.03582099 0.021031434 0.07683494 0.011658191 -0.0007225307
-0.041811097 -0.051635362 0.043508634 -0.11258203 -0.07890737 0.015380732 -0.08421752 -0.030306898
0.061447468 -0.008396761 -0.09587416 0.0723379 -0.150099 -0.0033646803 0.06316338 0.076805145
-0.02032107 0.02788052 -0.038373142 0.045266233 -0.019360749 0.07985875 -0.08671485 0.08459874
-0.11599762 0.066860266 0.0015390284 -0.036429163 0.07148929 0.07070325 -0.05181581 0.10016349
0.07420306 -0.11749794 -0.0060019824 -0.089182235 0.04714473 -0.02328579 0.04189897 0.018534247
0.0079509085 0.063623786 -0.13352236 0.077159844 0.064062156 -0.094804 0.026419159 -0.06923265
0.02271339 0.037031684 0.016464682 -0.108274765 0.05518569 -0.019434873 -0.11396078 -0.016700309
-0.09843613 -0.0446553 -0.087331295 -0.1048285 -0.13700433 0.17592996 0.06893423 -0.13393962
0.07726702 -0.16488868 0.023386398 0.15542398 -0.11521546 -0.14989094 -0.08522008 0.10568918
-0.16835456 -0.054202475 -0.09642074 0.13311793 -0.19416057 0.055720955 0.16780603 -0.20821492
-0.06726448 -0.04095535 0.06274183 -0.084368296 -0.099527836 -0.030128283 -0.14940947 -0.050268557
0.11732915 0.0033447838 -0.059135657 0.120247655 0.09566619 -0.018787438 -0.08582422 -0.029965786
0.08429765 0.1449521 0.07763187 0.01374324 -0.005838382 0.1178118 0.049521036 -0.0060904156
0.13141698 -0.08616302 0.11111592 -0.021459911 -0.093201585 -0.11078131 -0.10773042 0.20040199
0.091170855 -0.109577544 -0.011625778 -0.005286781 -0.0136294495 -0.20721695 -0.08757771 -0.09942204
-0.013209136 -0.08601927 -0.010650879 0.05050653 -0.10045769 0.07257609 0.14912066 -0.07678761
4.150858e-05 -0.020121995 0.08068002 0.059276525 -0.055107236 0.10455601 -0.17184097 -0.13519454
-0.110170394 -0.021052841 0.06896234 0.04650729 -0.10051615 -0.044671413 0.16193756 -0.065586224
-0.08957185 -0.11756074 -0.10013362 0.08761258 -0.023706207 -0.062362798 -0.09829199 0.10323811
-0.05350365 0.17128634 -0.0625746 0.05063199 0.114397824 0.07425018 -0.19161543 0.029462
0.11600093 -0.059731543 -0.07497514 -0.06415559 0.0047993395 -0.16111456 -0.008259091 0.016900035
0.0802486 0.18658191 -0.06497176 0.1250058 0.11998475 -0.08496361 0.13203445 -0.08319212
-0.13807377 0.08110795 0.1251336 -0.03703274 -0.0146293 -0.08365529 -0.15152258 0.033767324

std.constant11 f4 [128, 128]
00000000: fbad 2abd 1ec0 213d 0dcf 183d ffc4 0fbc
00000010: 4edb 38bb 6925 39bd 3601 4bbd de9c febc
00000020: 29ed 803d fd53 513c e95e c6bc 8e7d d13c
00000030: a61b e73c 5cfe ac3c 26be 1fbb 4b0c 0c3d
00000040: 6bdf 29bc b0c3 d3bd 6ed3 d53d 2902 1ebc
00000050: e5ae 69bd 62ca a83d 7209 613c 5ba3 e9bc
00000060: bb98 b63d 1720 073c 07cb e7bc 606d 283d
00000070: a4a0 f13d 5b10 10bd c238 123d b820 1ebd
00000080: 277e 083d 2d76 6a3b 98ae 303d 2f72 f23d
00000090: 8d4c 5cbd 3700 cdbc 37ea 8d3c dce3 29bc
000000a0: 0a88 133d b76a 223d 8ba0 733d 2293 93bd
000000b0: b5b4 88bd db91 0f3c f508 c63d 1eb8 eb3b
000000c0: d95c 513c c5d5 a5bc 8948 b43c 6c10 0e3c
000000d0: b275 d6bb 3546 e1bd 3c45 803d a91f 813c
000000e0: 33ec 12bd d4ca f6bb 4eb5 12bd 3e3e 553d
000000f0: 2cd5 583d aaa3 ad3d dcd2 d8bd a22f 82bd
00000100: b405 46bd 24f8 8f3c 590b 083d 1a72 06bd
00000110: 8925 693b e9f4 353c 3f03 82bc dfbd 88bd
00000120: 1968 abbd eff6 a93b 7ae8 873c 9943 973d
00000130: 182e 35be d7d5 163d e8dc 8dbc 9a90 f2bb
00000140: 7a61 a53c e4d8 993c 4d47 1d3d 49c0 063c
00000150: 0cae 6e3c 478b 863d 9700 73bb 0787 3bbc
00000160: 5799 4bbd 83ed 05bd c601 373d e10c a7bd
00000170: 67a5 383d 11b5 6f3d 0559 493d 6c96 92bc
00000180: 1f76 32be 23aa 1abd 294e 24bc 2490 983c
00000190: 4832 983d f2c3 5b3c 9b83 a7ba cacf 3d3c
000001a0: 01ff 4c3c f92c 71bc bfaa aabc 24d1 0ebd
000001b0: b677 84bd e83c 2fbd fd4f 1abd 035c a9bd
000001c0: 0de4 823b 2e0d 54bd 46c8 9ebd 1ac7 fabd
000001d0: 6d7d bfbd 5b50 fbbb 2f93 433d 6ad3 fb3c
000001e0: 2926 95bc 6e99 38bd 333b 6d3d 7301 1cbc
000001f0: e824 31bc 82c7 06bd e3da 773d 0a6a 9d3d
00000200: 1526 983b 734a 7bbc a6b8 903d 902d bb3c
00000210: 7b00 29bd 4355 abbd 6b58 8e3d 2882 2d3d
00000220: 775e ba3d 473a eb3d fbd0 05be 570a fcbc
00000230: cf5f f3bc 5e07 033c 0bb2 293d 348f 6ebd
00000240: f7bd d93c d296 86bd 5b9f 0a3e db01 6c3b
00000250: 28cf 843d ad69 143d 206f f83d d866 dd3d
00000260: 412a 323d e5ab 91bb e8c2 3f3d 717e d23d
00000270: a3ed 073d db05 313d f0f4 983d f31a 803d
00000280: 4c60 6dbd 83b8 26bd 0d9c cebb d8a2 acbc
00000290: 8d97 0bbe 0d3f 72bd 587c 8e3c a431 403d
000002a0: 1520 47bd 9e31 f0bc 2f18 14bb dd97 863d
000002b0: 33d0 43ba b202 2dbc 7bf5 bf3d 014e 98bd
000002c0: 61fc 01be 8712 c73d 21b8 313c 54cc 67bc
000002d0: 70b8 413d f4b3 3e3d d09f 3e3d 191f ebbc
000002e0: 785b fbbc 9bf2 13be 9de5 e9bd e9a3 45bd
000002f0: 8b45 bcbc 8194 823d 5430 853d 1358 903c
00000300: 6a63 093d 58af f2bc 874e 603c ee40 68bd
00000310: 2628 13bc 7fe3 073d bd38 0e3d f13e 033d
00000320: 9e07 cabc ebfd bd3c 4eeb 6bbc 5d23 f0bb
00000330: be39 dabd fc95 8abd e430 01bd 37b6 833d
00000340: 9e3d ed3d 9172 8bbd 5418 8c3c cd86 2639
00000350: a6ca 843d df75 9ebc 9efc f6ba 1449 fabd
00000360: 501d 4d3d 172b 883a b0a5 cf3c 8e50 82bd
00000370: 9e3b a43c 0965 083d 2343 233d 78cc 27bd
00000380: 3f1d 37bc b9ef 4ebd f2e5 97bd 8b5e c43b
00000390: e72d f0bc b6b1 fabd 277f a73c 6755 a5bd
000003a0: f0c7 d7bc 6d4e 2bbd 5083 bcbd 728c 1d3d
000003b0: bd78 253d 99f3 853c 9e52 abbd 4eee a1bd
000003c0: 2ad9 79bb fe50 943d 0afb d0bb 043d 113c
000003d0: 4eaa f7bc 2c22 f13c 8978 5fbd 6db9 f83c
000003e0: 5fcd 343c 4245 39bc df27 16bd ed28 9f3d
000003f0: bf40 38bd 638f 513d abb6 10bc ed6b 47bc
-0.041669827 0.039489858 0.037306834 -0.008774995 -0.0028206888 -0.045201693 -0.0495617 -0.03108066
0.06295235 0.012776372 -0.024215179 0.025572564 0.028211426 0.021117382 -0.0024374812 0.03419141
-0.010368208 -0.10340059 0.10440718 -0.00964407 -0.057051558 0.082417265 0.013735162 -0.028520277
0.0891585 0.008247397 -0.028295053 0.041119933 0.11798218 -0.035171848 0.03569866 -0.03860542
0.033323433 0.0035776005 0.043135256 0.11838185 -0.053783942 -0.025024517 0.017323596 -0.010369267
0.03601841 0.039652552 0.059479278 -0.07205798 -0.06675092 0.008762802 0.09669677 0.0071935793
0.012778484 -0.020243535 0.022007244 0.0086709075 -0.006544792 -0.10999719 0.062632054 0.015762167
-0.03586979 -0.007531503 -0.035817437 0.052061312 0.05293767 0.08478482 -0.10587093 -0.063567415
-0.048345283 0.017574377 0.033213947 -0.03282366 0.0035575351 0.011105754 -0.015870688 -0.0667684
-0.083694644 0.0051869075 0.016590346 0.0738594 -0.17693365 0.036825027 -0.01731725 -0.0074024918
0.020188082 0.01878018 0.038398076 0.008224555 0.014567863 0.06569534 -0.003707921 -0.011445767
-0.049706783 -0.032697212 0.044679426 -0.08156753 0.045079615 0.058522288 0.04915716 -0.017893992
-0.17427872 -0.03775991 -0.0100284 0.01862342 0.074314654 0.013413416 -0.001278031 0.011585185
0.01251197 -0.014720195 -0.020833371 -0.03486742 -0.064681455 -0.042782694 -0.03767394 -0.08269503
0.003994471 -0.05177038 -0.07753043 -0.12245007 -0.09350095 -0.007669491 0.047747787 0.030740459
-0.018206673 -0.045068197 0.057917785 -0.00952183 -0.010812022 -0.03290511 0.06051148 0.07686241
0.0046432116 -0.015337574 0.07066469 0.022848874 -0.041260224 -0.08365872 0.06950458 0.042360455
0.09100049 0.11485725 -0.13068001 -0.03076665 -0.029708771 0.007997362 0.04142956 -0.058242038
0.02657984 -0.065717354 0.13537352 0.0036011848 0.064848244 0.036233593 0.121305704 0.108106315
0.043497328 -0.0044455403 0.046816736 0.10278023 0.033185612 0.043218475 0.07468593 0.0625514
-0.057953164 -0.040703308 -0.006305224 -0.021073744 -0.13632031 -0.05914216 0.017393276 0.04692234
-0.04861458 -0.029320534 -0.0022597422 0.06571934 -0.0007469684 -0.010559725 0.093729936 -0.07436753
-0.12693931 0.09720331 0.010847122 -0.014147837 0.047295034 0.046558335 0.046539128 -0.028701352
-0.030683264 -0.14448015 -0.114207484 -0.04825202 -0.02298238 0.06375981 0.065033585 0.017620122
0.033542074 -0.029624626 0.013690597 -0.056702547 -0.00898174 0.03317594 0.03472208 0.032042447
-0.024661835 0.023192367 -0.014399363 -0.0073284344 -0.10655545 -0.067668885 -0.031540766 0.06431239
0.11584018 -0.06808961 0.017101444 0.00015881211 0.064839646 -0.019343315 -0.0018843596 -0.1222097
0.050076783 0.0010388818 0.02534756 -0.06363021 0.020047959 0.03329948 0.03985895 -0.04096648
-0.011176406 -0.050521586 -0.074169055 0.0059927157 -0.029318763 -0.12240927 0.020446373 -0.0807293
-0.026340455 -0.04182284 -0.09204733 0.038464017 0.040398348 0.016351508 -0.08365367 -0.07906781
-0.0038123825 0.072420105 -0.0063775824 0.008864645 -0.030232575 0.02943524 -0.05455831 0.030361855
0.011035292 -0.011308016 -0.036659118 0.07771478 -0.04498362 0.051162135 -0.008832614 -0.012171728

std.constant12 f4 [128, 128]
00000000: ea47 4dbd c03d 87bd c7aa 7ebd d994 153d
00000010: a1ea 0b3d 2259 60bc bbd6 423d 70d7 b73c
00000020: 4809 b43c a2c7 fbbb 569c 07bd 34e7 c73c
00000030: fb0b 3a3d 623a 8f3d 5f28 aa3c 2f39 443d
00000040: b47f 9cbc d9f7 85bc 6045 e5bc 4131 f03c
00000050: 8bad 6b3c 09f5 28bd 0ce4 b3bc 1f64 8e3c
00000060: ba0e ecbc 6752 eebb ef6a 8f3c a784 d3bc
00000070: f593 e03c 6b1c 44bc 26f2 78bb d44a 5b3b
00000080: adfd 20bc 19f7 a53d d1bc 533d 094c 213e
00000090: 2847 8a3c d17a 9cbd ed2a 76bc add7 46bd
000000a0: 14fe f73c cc48 34ba ee4b 733b e102 983d
000000b0: 4cc9 62ba e834 e6bd 0117 f63c 2242 1e3d
000000c0: f61a ed3b b656 043d 864e 2bbd f721 523d
000000d0: 6e45 fd3c d361 243d d2b9 6d3c 9816 ce3b
000000e0: 0617 e23d f3ee d7bc 262f a9bc 7aa4 bcbb
000000f0: 8df3 1abd abaa c23c 95f5 a83d ccd7 95bc
00000100: 71b0 903c d3db 9f3d b26e 31bc 41b9 86bc
00000110: 89e7 913a 663e 353d e2b3 4abc e799 3d3d
00000120: e673 68bd 12f0 8f3d 1510 893c a58f dbbd
00000130: 840b 303d 01a1 b8bd f0eb a33d 943a 3fbd
00000140: 75e2 83bd f243 31bd ebf5 87bc b562 3e3d
00000150: 3bd7 823c ad39 813c 26a8 483c c385 2abe
00000160: 95f1 473c 9834 943d a63a 1dbd 67cc 84bc
00000170: 7281 57bc e4bc b9bc 19cf 6e3d 78ef e1ba
00000180: 441e 653d ac59 8fbd c134 4c3c 9556 54bc
00000190: 8122 22bd c764 babc b168 9cbb 0a50 4fbd
000001a0: 7fdd ef3c 807a 4a3d 2788 25bd 5522 b63c
000001b0: 6ae1 e33d 5065 563c cf7e 54bd d939 fdbb
000001c0: 12be 153d c280 9abd 77bd 8fbd e75b 08bd
000001d0: 97b2 5e3d f99e 05bd a9cd 9fbb c092 e0bc
000001e0: a04e 1ebc e29a fe3c 1899 9cbb cb5b 4b3c
000001f0: fe42 a93c a8e5 fe3c 0dc8 663b c033 d4bb
00000200: a5df 043d 4426 76bd 0906 9dbd facf 893d
00000210: 8d47 9f3d 4ab7 efbc 9ca7 313d da1a 473d
00000220: 4cf9 f9bb b0d8 fcbb 4849 3c3d 42c8 51bd
00000230: a56f 043d d1c5 563c e65a fcbc e8a2 d7ba
00000240: cd41 48bd 7e2e dfbc 1894 32bd 4353 e3bc
00000250: b02f 1f3d 2530 43bd 1e68 14bd 155f 123c
00000260: 2cc9 873c f9e0 d73c bbe2 85bd 9d78 dcbc
00000270: 42cd c2bc 957d 2cbc d7a5 df3c cd7c 2f3d
00000280: dd79 ad3d 1eae 98bd 5261 2d3d 48a6 10bd
00000290: 0e86 ad3c db69 55bd 6967 6c3a 6bc8 133d
000002a0: 5ae5 7d3d e4a3 7abd b288 a9bd f32b c1bc
000002b0: d16d 233b 0c5e 3ebc ff72 41bd 59ae 8d3d
000002c0: 65cb b1bb b133 2cbd 1a3e 793c cd02 6d3d
000002d0: 8d93 7b3d 5391 3b3d 0d24 463c 303a e8bc
000002e0: 8dc0 93bd 3fac 0d3a 57cf be3c e07a d83c
000002f0: 6ab9 a83c a77f 96bd 9fe1 11bd 7168 8e3c
00000300: 44f0 45bd 9e60 16bd 1d13 623d 1c7f 233c
00000310: 0146 1f3d b3ef e2bc 0b6f 153d ea64 383d
00000320: 37c7 c03c 5c79 84bd ee8f f83c a0ea 37bd
00000330: 5c12 593c 83f2 843b fa3a 983b f28b 763c
00000340: b803 7cbd 2bd8 833d 5d72 34bc 68e6 8abc
00000350: 2487 30bd f783 c93d d6ff a0bd fbe7 eabd
00000360: c2b2 033c 89ac c43d 0059 633d 013f 80bd
00000370: 21d2 87bb 942b 5a3c 32f8 44bc 8bf1 153b
00000380: 06db 843d 2c5e 82bc b144 fa3c 3d47 e3bc
00000390: 6e5b 81bd 2eaa ff3c af36 493d 9153 52bd
000003a0: 9337 b2bb 34d8 31bd 448a 9b3d f52c 0bbb
000003b0: 4cee 09bd f96e ff3c a769 ef3b 88a6 5a3d
000003c0: 41df a5bd e675 0ebd f706 af3d b01f 49bd
000003d0: 6c94 c5bd afac c43c 3f7b 583d 6c70 223d
000003e0: 8df9 143d 95bd b6bc 04df af3d fdac 7d3d
000003f0: 8d18 453d 6335 f0bc ed25 663d 89ab 02bb
-0.05011741 -0.06603575 -0.062174585 0.036518905 0.034159306 -0.013693126 0.047568064 0.022441596
0.021977082 -0.00768371 -0.033108078 0.024402238 0.04542158 0.069935575 0.020771204 0.047906097
-0.019103862 -0.016353535 -0.027987182 0.029320361 0.014384638 -0.04124931 -0.021959327 0.017381726
-0.028815616 -0.0072730067 0.017507045 -0.02582009 0.027414301 -0.011969666 -0.0037986129 0.003346135
-0.009826106 0.08103771 0.05169374 0.15751661 0.016879633 -0.07640613 -0.015024883 -0.04854553
0.030272521 -0.00068773027 0.0037124115 0.07422424 -0.00086512114 -0.1124056 0.030040266 0.038637288
0.00723588 0.032309256 -0.041822933 0.051301923 0.030916896 0.040132355 0.014509635 0.0062893145
0.110395476 -0.026359057 -0.020652365 -0.005756912 -0.037829924 0.023763021 0.08249966 -0.018291377
0.017662259 0.078056 -0.0108296145 -0.016445758 0.0011131625 0.04424896 -0.012371989 0.04628935
-0.056751154 0.07028212 0.016731301 -0.107207574 0.042979732 -0.09015084 0.08003986 -0.046686724
-0.064396776 -0.04327769 -0.016596755 0.046480853 0.01597177 0.015774572 0.012247121 -0.16652589
0.012203594 0.07236594 -0.03838601 -0.016210748 -0.013153421 -0.022673078 0.058302972 -0.0017237505
0.055937067 -0.069995254 0.012463749 -0.012960096 -0.039583687 -0.022753133 -0.0047732224 -0.05061344
0.029280422 0.04943323 -0.040413048 0.022233168 0.11126979 0.013085678 -0.051878747 -0.0077278432
0.03655822 -0.0754409 -0.070185594 -0.03329077 0.054369535 -0.03262231 -0.0048768115 -0.027413726
-0.0096623 0.031079713 -0.0047789924 0.012412022 0.020661827 0.031115368 0.0035214454 -0.0064758956
0.032439847 -0.060095087 -0.07667167 0.067291215 0.07777319 -0.029262204 0.043372735 0.048609592
-0.0076285955 -0.007716261 0.045968324 -0.05121637 0.032333035 0.013108687 -0.030805063 -0.0016451748
-0.048890878 -0.027243849 -0.043598264 -0.027749663 0.038863838 -0.047653336 -0.036232106 0.008933802
0.016575418 0.026352393 -0.06537386 -0.026912982 -0.023779515 -0.010527988 0.027300758 0.04284363
0.08470509 -0.07455085 0.04232914 -0.03531483 0.021182086 -0.052102905 0.0009018095 0.036079805
0.061986305 -0.061191455 -0.08278026 -0.023580527 0.0024937282 -0.011619102 -0.04722881 0.0691802
-0.005425858 -0.042041484 0.01521256 0.057864 0.061420012 0.04579289 0.012093556 -0.028348058
-0.072144605 0.000540439 0.023292227 0.026425779 0.020596225 -0.073485665 -0.03561556 0.017383786
-0.04832484 -0.036713235 0.05519401 0.009979036 0.03888512 -0.027702188 0.036482852 0.045018114
0.023532493 -0.0646846 0.030342069 -0.04490149 0.013249006 0.00405723 0.0046457024 0.015048014
-0.061526984 0.06437715 -0.011013594 -0.01695557 -0.04309763 0.098396234 -0.07861297 -0.11470028
0.008038225 0.09603221 0.0555048 -0.06262017 -0.0041449224 0.013316054 -0.012022065 0.0022879567
0.06487088 -0.015914045 0.030550333 -0.02774393 -0.06316267 0.031209078 0.049124416 -0.051349226
-0.005438754 -0.043419078 0.075947315 -0.0021236513 -0.033674523 0.031180846 0.007306296 0.053381473
-0.08099223 -0.034780405 0.0854625 -0.049102485 -0.0964745 0.024008123 0.05285191 0.039657995
0.036370803 -0.022307197 0.08587459 0.061932553 0.048119117 -0.029322332 0.056188513 -0.0019938669

std.constant13 f4 [128, 128]
00000000: 58aa 9abd 2268 593b 1c76 81bb eb7b 82bd
00000010: a816 07bd ff6a 653d 2a49 573d b5b3 56bc
00000020: 12eb c03d 6b96 84bc aa8a 84bd 96d2 473d
00000030: 6987 393d 84fe 29bd f91e 9fb9 fe12 923d
00000040: e460 05bc 7c86 bcbc 6fdc f73d 3ef4 c73c
00000050: bea2 573c 0f8f 9c3c 6e5d 54bd d606 8dbd
00000060: 98a1 353c 8899 023d 3609 723d 666a 01be
00000070: 2717 ccbd 4806 fbbc dd2f 2dbd c8fb f5bc
00000080: 60cd 443d f738 393d 410e c7bd 9e36 063d
00000090: 6f49 6f3d f070 523c c78e 7abb f2cf 07be
000000a0: 074f fbbb 5109 023d fd1a 68bd 3686 073d
000000b0: 234f 94bc a1f4 343d 5d18 d73d e5e7 ad3d
000000c0: b715 aa3d b8cf 62bc 7179 32bc dd95 1a3d
000000d0: a6e3 58bd 49bc 843c d14a a0bd 5f08 463d
000000e0: 3341 ad3b 8282 d2bd d2a7 4ebc 99ba 963c
000000f0: 55d2 0abd 144a 8fbd 4172 6abd 4e5e 0dbe
00000100: 17ab 55bd 6eb6 e6bd dae6 9ebd d21b 993c
00000110: b5bf 333c a018 393d 4543 2f3d f43a ff3b
00000120: f6a2 26bd cb26 bebc 2d24 ad3d 2607 1a3c
00000130: 7e7d 53bd 7a91 2e3d 8a65 d9bd 28d3 acbd
00000140: 02b7 0bbd dce2 eebd d05b 53bd 4061 a43d
00000150: e78b 0fbd 4708 f6bc 7aef 61bd 6349 073d
00000160: 00f9 1d3c 6a65 37bd 9fdc 59bc fca4 ed3d
00000170: 1457 31bd 7da9 103d ac4d 253d 8030 983d
00000180: 9e8f 08be 40ef 88bc 8b3d 1cbd ef84 b83d
00000190: 8257 5639 8fd4 99bd ec6a 13be 659a 2c3d
000001a0: 336e 94bd d1fc 52bd 6d6b a0bc 9d45 16bd
000001b0: 8cb4 503d f75c e6bd 6edd 6ebd 3db3 cabc
000001c0: 6d41 0a3d d6f1 1fbb 9e09 dfbb 3681 253d
000001d0: 3455 eebc 6db2 1abe 2c15 8e3d 964b 3abd
000001e0: fcce 18bd 4469 9f3d 7834 fb3c 4ddd fdbc
000001f0: a92c 35ba a977 88bd e466 52bc 2fbb e83d
00000200: ca40 6cbd a004 f9bd 5c2b a0bc 4597 8cbd
00000210: 660a 2cbe eef3 0a3c d163 173d c16a 38be
00000220: 520a c83d 5fff 21be 40ab 7bbd 4d45 213e
00000230: 9cb8 92bd f59a 92bd 5ebd 083d 71c8 033e
00000240: 9d42 3fbe da4c cebc bce1 86bb 0e6f 193d
00000250: 06eb 82bd 572c 8e3d f726 153e 96d1 f5bd
00000260: affb 2ebd a9bc 133e 71da ad3d 7fa2 dfbc
00000270: dc5f 94bd fbf2 bfbd 9dcf 0cbe f924 25be
00000280: 3105 ae3d 444a 8f3d 644c ffbd 231c 023e
00000290: f42b 9b3d e32c 14bc fd1e 83bd a129 30be
000002a0: bf88 423d f2a1 043e ece7 373d 6e23 0d3d
000002b0: 58c1 ebbd 4285 5a3e d69f 5b3d 0685 c33d
000002c0: 8d16 043e 37bd 0fbe da0f e33d 6571 3a3e
000002d0: d7a6 88bd 7df8 0a3c 7975 a5bd 4f64 373c
000002e0: 611b 343e 7309 0cbe ea54 4c3d 99e6 8bbd
000002f0: 66e2 16bd 1b42 90bd 5efa d9bd d297 3fbe
00000300: 5958 0bbe 53a1 2abe b1dc 87bd 2974 c23c
00000310: 01b2 d8bd 75b9 013e 3fd6 633d 48d9 24bd
00000320: aa0b b0bc 4b57 e2bc 04e6 a63d 7593 acbd
00000330: 63a7 8bbd 7e10 00ba e357 20be f7c7 04be
00000340: db3a b93c fd57 cbbd fa45 083e ec12 b8bc
00000350: 9039 4cbd 3679 81bd da9a fe3d 02b1 53bd
00000360: 39c0 18bd 2440 85bd 4085 57be 88cd ac3d
00000370: 70d7 11be 520f 8b3c 2d9b fbbd 3c65 443e
00000380: c7de 3abe 8a3c ec3c 8f3b 19be bbff 733d
00000390: e780 d83c 365c b3bd 35c2 f9bd 9a98 e53d
000003a0: 69e5 f03d a828 04be 9f3a 15be 7ef3 32be
000003b0: 1beb ba3c c382 f0bd 9199 c1bd 3cdd 2abd
000003c0: fca5 0a3d 1dae be3d 5101 82bd 12c8 e33d
000003d0: 2eca be3d c7e2 f0bd d502 5f3d 4854 80bd
000003e0: fda4 f2bd 2e57 f33d 8906 093e 44c4 19be
000003f0: fd23 95bd 80b9 b3bd 0cbf 0dbe 89a8 2e3e
-0.07552022 0.003317364 -0.0039508473 -0.06371292 -0.03298059 0.056010243 0.05256001 -0.013104369
0.09419836 -0.016185006 -0.064717606 0.048784815 0.045295153 -0.04150249 -0.0003034992 0.07132529
-0.008140776 -0.023013346 0.12102591 0.024408456 0.013161359 0.019111184 -0.051846914 -0.068860695
0.01108589 0.0318847 0.059090815 -0.12638244 -0.099653535 -0.030642644 -0.042281974 -0.030027285
0.048047423 0.04522034 -0.097195156 0.03276693 0.05841964 0.012844309 -0.0038232075 -0.13262919
-0.007669333 0.031747166 -0.056666363 0.033086978 -0.018104142 0.04417861 0.10502694 0.08491496
0.08304923 -0.013843469 -0.010893212 0.037740577 -0.052951477 0.016203063 -0.0782677 0.048347827
0.0052873134 -0.10278799 -0.012613254 0.018399524 -0.033891995 -0.06996551 -0.057237867 -0.13805506
-0.052165117 -0.112652645 -0.07758875 0.018690024 0.0109709995 0.0451895 0.042788763 0.00778901
-0.040682755 -0.023211857 0.084541656 0.009401118 -0.05163335 0.042619206 -0.1061507 -0.08438712
-0.034110077 -0.11664364 -0.05160123 0.080263615 -0.03504553 -0.030033244 -0.055160023 0.03302897
0.009641886 -0.04477445 -0.013297229 0.11603734 -0.043295935 0.035317887 0.040357277 0.07431126
-0.13336036 -0.016715646 -0.03814463 0.0900973 0.0002044123 -0.075112455 -0.14396256 0.04213943
-0.07247581 -0.051510636 -0.019582475 -0.036687482 0.050953433 -0.112482004 -0.05831664 -0.02474367
0.0337538 -0.002440562 -0.0068065664 0.04040643 -0.029093362 -0.15107127 0.06937632 -0.04548224
-0.03730677 0.0778375 0.030664667 -0.030989313 -0.0006911257 -0.06663448 -0.012841914 0.113638274
-0.057678975 -0.12159085 -0.019551925 -0.0686479 -0.16800842 0.008481009 0.036960427 -0.18009473
0.097675934 -0.15820073 -0.061442614 0.15749092 -0.07164118 -0.07158462 0.03338372 0.12869431
-0.18677755 -0.02518313 -0.004116265 0.037459426 -0.063924834 0.06942051 0.14565645 -0.12002866
-0.042720493 0.14427437 0.0848893 -0.027299164 -0.07244846 -0.09372517 -0.13751073 -0.16127385
0.08497084 0.06996587 -0.12465742 0.12706046 0.07576743 -0.009043905 -0.06402395 -0.1720338
0.047493692 0.12952402 0.044898912 0.034457617 -0.11511487 0.21339896 0.05361923 0.095468566
0.12899227 -0.14037023 0.11087008 0.18207319 -0.06672447 0.008482096 -0.08079047 0.011193349
0.17588569 -0.1367548 0.049885668 -0.068310924 -0.036837004 -0.070438586 -0.10643457 -0.18710259
-0.1360792 -0.16663103 -0.066338904 0.02373703 -0.105808266 0.12668402 0.055624243 -0.040246278
-0.021489937 -0.027629515 0.08149341 -0.08426563 -0.06819036 -0.000488527 -0.15658526 -0.12966906
0.022611072 -0.09928892 0.13307944 -0.02246996 -0.049859583 -0.06321947 0.12431879 -0.05168248
-0.037292693 -0.065063745 -0.21046925 0.084376395 -0.14242339 0.016975079 -0.12285457 0.19179243
-0.18249045 0.028837461 -0.14964126 0.059570055 0.026428653 -0.08757822 -0.12195245 0.11210747
0.117625065 -0.12906134 -0.14573143 -0.17475697 0.022817185 -0.11743691 -0.094531186 -0.04171489
0.0338497 0.09310553 -0.06347907 0.11122145 0.093159065 -0.11762004 0.05444606 -0.062660754
-0.11847875 0.118818626 0.13381399 -0.15016276 -0.07282255 -0.08775616 -0.1384241 0.17056479

std.constant14 f4 [128]
00000000: e6fa 2e3d 9e67 f33d 5848 463b 5b3b 733d
00000010: f369 ad3c 0b81 c1bb 9b3a 103e 0ad8 c33d
00000020: e4c4 6e3e cae1 863c e76d d83c e64b 7b3d
00000030: bc1e a3b9 127d 823c ab9c 293d 9537 c13c
00000040: e0ec c23d 6ac1 5e3e 4d9b 6f3b 9d13 fa3c
00000050: 100c ebbb a9bb 113e fcad cb3d 9d42 763d
00000060: b83a 3fbc 6860 143e 6823 023e 30ee 1fbc
00000070: fc12 363c eea8 903d 2cb3 1d3d d8e5 133d
00000080: 11bc ba3c 1050 adbc f0ec dcbb 9d06 2f3e
00000090: e1b8 6e3d 68db 5e3c 7868 ca3d 9813 0c3e
000000a0: 2ef3 0b3d 0bb5 3abd f729 d73d d486 8a3d
000000b0: 4d55 0dbc 844c 49bb 6712 693d 7692 653e
000000c0: af73 3c3b 89e3 793c 6d3d 3f3c 1a15 b03d
000000d0: a2ad 0f3d e92e debc 583d ec3c a6e9 9fbb
000000e0: d6f8 753d ab4b 283e 3c20 153b fec3 633d
000000f0: 5d7c 1d3b 0f11 593e 559d 643d 9264 cd3d
00000100: 82ad 23bc 4f34 0fba 0619 a83d 87f8 f2bc
00000110: 4326 093e 2918 ce3c 1386 363c aac9 183e
00000120: fe54 683d fa7b 443d f37a 3d3b d27e 063c
00000130: e2c9 353c c750 25bc 5671 163b 8346 7b3d
00000140: 47b8 fd3c 9ede 483e 6e44 f43d 0475 d4bc
00000150: 94d6 30ba 650f f23d 4875 313d 653a 2b3e
00000160: a7cd 223e f820 f4bb 1eef 863d ff53 4a3a
00000170: d5d1 163e f541 07bd c7a5 233d d73e cb3c
00000180: fa7b 573b 3916 7e3c 1dda 5d3c 58df 05bc
00000190: d3ce 3e3c f0c3 d03c 03b3 d33d d723 143c
000001a0: 7121 e93c a162 7339 1b3b 933d 759b 143d
000001b0: 9f57 9b3d 7a0a e33d b278 e43d d366 8f3d
000001c0: 2a6a 2fbc 3bd5 283d 5650 2c3d 3bb6 d13c
000001d0: e490 b9bc d38f 863d 7da1 8cbb c50f 23bb
000001e0: 1c5a e83d 3bd1 563d 54c6 803c 90fd 103e
000001f0: a392 9e3c 206f 2b3e 3637 643d d80e 3f3d
0.042719744 0.11884998 0.0030255523 0.059382778 0.021168685 -0.0059052757 0.14084856 0.095626906
0.23317295 0.016465086 0.026419593 0.06135168 -0.00031112682 0.015928779 0.041409176 0.023586074
0.095178366 0.21753469 0.0036561072 0.03052693 -0.007173069 0.14231743 0.09945294 0.06012212
-0.0116717145 0.14489901 0.12708819 -0.009761378 0.011112925 0.07063471 0.03850095 0.036107868
0.022794755 -0.02115634 -0.0067421123 0.17092367 0.058281783 0.013602115 0.09883207 0.1367935
0.03416746 -0.045582812 0.10506051 0.06763998 -0.008626294 -0.0030715773 0.056902315 0.22419152
0.0028755476 0.0152520025 0.01167236 0.08597775 0.0350777 -0.027121978 0.028837845 -0.004880148
0.06005176 0.16435115 0.002275481 0.055606835 0.0024030425 0.21197914 0.055814106 0.10028948
-0.009990098 -0.00054628117 0.08207898 -0.029659523 0.13393502 0.025158005 0.011140364 0.14920679
0.05672168 0.047969796 0.0028912395 0.008208947 0.011095496 -0.01009006 0.0022955737 0.061346542
0.03097166 0.19616172 0.119271144 -0.025934704 -0.0006745842 0.118193425 0.04332474 0.16721494
0.15898763 -0.0074502192 0.06588577 0.0007718205 0.14728482 -0.033021886 0.03995302 0.024810238
0.0032880292 0.015508228 0.013540772 -0.008170925 0.01164599 0.025484055 0.10336878 0.009041748
0.028458329 0.00023211028 0.07189008 0.036281068 0.07585072 0.110859826 0.11155833 0.07002034
-0.010706464 0.041218977 0.0420688 0.02559959 -0.022652097 0.06570401 -0.004291712 -0.0024881226
0.11345312 0.05244563 0.01571957 0.14159226 0.019357031 0.1674161 0.055716716 0.046645015

std.constant15 f4 [128]
00000000: ab27 7e3f 8b20 783f d156 853f 7b58 813f
00000010: d991 843f edfe 7e3f 6e81 753f 6c51 763f
00000020: 3fe8 763f 855e 863f 4f7a 823f 0c78 873f
00000030: 7e19 7f3f 7182 833f efbc 7e3f 6889 7c3f
00000040: ba20 853f 832e 733f ce1e 823f 2c3a 823f
00000050: af6e 7f3f 95b4 773f 15da 6c3f 1e19 813f
00000060: ae36 813f 3ec8 6e3f a0f6 7a3f 1054 853f
00000070: 278c 7f3f eb82 8a3f 5b86 873f 1b4f 873f
00000080: 3cb8 833f 650f 7f3f 1224 863f 281a 723f
00000090: 5ca7 8a3f 8c80 843f 7c39 783f 692a 783f
000000a0: 7e11 833f 95e2 743f 3152 763f 8798 663f
000000b0: 6452 7a3f e1de 763f 2596 803f 4aa3 733f
000000c0: c9ab 803f 30fe 873f a8c4 833f 2543 773f
000000d0: 28be 833f 75bc 823f b4cb 843f 9211 7e3f
000000e0: c9db 813f 0fff 763f 3eb5 7c3f c171 7a3f
000000f0: 0b00 743f 4502 813f c7b9 793f 676d 7a3f
00000100: b387 803f c3ef 7f3f 7865 703f 66a2 8b3f
00000110: 3081 783f 3b61 883f dea2 803f 3e8d 753f
00000120: 409f 813f d190 7d3f 629c 823f b50d 813f
00000130: cc40 843f 9f77 813f 3e84 7d3f e9f3 773f
00000140: 1fa8 7a3f aa3b 753f 52b9 753f 3088 753f
00000150: 5f0f 783f b2fe 7a3f f790 813f 0c2c 723f
00000160: 28d3 753f 2f4e 7e3f dd54 8a3f ff53 803f
00000170: b3ff 713f 3ff5 883f 00dc 813f 5a94 843f
00000180: 6dbf 853f 8d11 803f af9d 803f 9e3c 823f
00000190: 9caf 843f 746c 823f 12aa 783f 67cc 823f
000001a0: 1ecd 863f adef 7c3f df49 783f 48be 853f
000001b0: b8eb 823f 5a3c 743f 05df 783f 9b57 7c3f
000001c0: cf19 803f 1e97 813f f254 7a3f e318 843f
000001d0: 4bf2 803f c201 843f 8f11 813f f6ff 803f
000001e0: 37b0 7f3f 2bd2 793f dff2 823f 1fa9 7b3f
000001f0: 9777 853f e8e6 6f3f 8ed9 7f3f 44a9 7e3f
0.9927928 0.96924657 1.0417119 1.0105127 1.0357009 0.99607736 0.9590062 0.9621799
0.9644813 1.0497595 1.0193576 1.058351 0.99648273 1.0274183 0.9950704 0.98647165
1.0400612 0.94992846 1.0165651 1.0174003 0.99778265 0.9675992 0.92520267 1.008579
1.0094812 0.93274295 0.9803257 1.0416279 0.9982323 1.0821203 1.0587877 1.0571016
1.0290599 0.99632865 1.0479758 0.9457116 1.0832324 1.0351729 0.96962714 0.9693971
1.0239713 0.95658237 0.96219164 0.9007649 0.9778197 0.96433836 1.004582 0.95171034
1.0052425 1.0624447 1.029439 0.9658683 1.0292406 1.0213763 1.0374665 0.9924556
1.0145198 0.9648294 0.98714054 0.97829825 0.95312566 1.0078818 0.975491 0.97823185
1.0041412 0.9997522 0.9390483 1.0908935 0.97072124 1.0654672 1.0049703 0.95918643
1.0126724 0.990491 1.0203974 1.0082308 1.0332274 1.011463 0.9902991 0.9685655
0.9791278 0.95794165 0.959859 0.9591093 0.96898454 0.98044884 1.0122365 0.9459846
0.96025324 0.9933805 1.0807148 1.0025634 0.9453079 1.0699843 1.0145264 1.0357773
1.0449044 1.0005356 1.0048121 1.0174749 1.0366092 1.0189347 0.97134507 1.0218629
1.0531347 0.98803216 0.9698772 1.0448694 1.0228186 0.9540459 0.972153 0.98571175
1.0007876 1.0124242 0.97785866 1.0320095 1.0073942 1.0313036 1.0083483 1.0078113
0.9987826 0.97586316 1.0230368 0.98304933 1.0427121 0.9371171 0.9994134 0.9947703

std.constant16 f4 [128]
00000000: 9b80 773a 8a23 71bc 7070 48bc c942 5cbb
00000010: 5d5b 81bb 8a87 403c d707 403c 4abc f2bb
00000020: c7c9 333c e846 00bd 988e 673b 1c80 7f3d
00000030: 78ed c6bc af07 0cbd 0f46 4b3c d3cd 3a3d
00000040: f689 e4bc 2cb3 4ebc e0cf e7ba 8e4b 4f3d
00000050: f5ac 50bd 2160 853c c6ee b03b 5b3e 0dbd
00000060: 58d6 01bd b36a feba 35cd c3b9 be3e 153c
00000070: 79ce 65bd 663b 98bd 608f 07bd 848b 15bd
00000080: 4f8c e23c 1b5d e93c d441 48bc 3469 8b3c
00000090: d946 4f3d cc16 16bb e7c4 c1bc d6f2 58bc
000000a0: 373d 963c b630 523c 7176 c4bb 94bb 163b
000000b0: 754d 52bc 18c9 cf3c a405 923c 20c0 b2bb
000000c0: 2e0c 293d 4886 9fbb 3a38 273d 6bfa c53b
000000d0: c269 0ebd fcef 6fbb b43c e9bc 9979 d33c
000000e0: 9a4a 543c 6b69 10bc d664 adbb 78bf c6bb
000000f0: 7e61 fb3b 56e3 21bd 9237 abbc d8b6 33bc
00000100: 6185 25bc 4b8a 0ebd 1d15 92bb 5b70 873c
00000110: cf58 fcbc 754f 093d 65a2 1c3c 0fa7 71bc
00000120: 9f75 b3bb a504 93bc eaa9 b33c 55a4 d7bb
00000130: 38cf 70bb 05f3 1e3c d313 0fbc 89d2 a5bc
00000140: 3a21 b6bc c06c 81bc 27cc a13c e84b 9f3b
00000150: cdb0 06bc 6a8d 0cbd be79 1d3c 9db1 48bc
00000160: 3571 6fbc 1a51 11bc bfe4 76bd f349 113c
00000170: d0cf 42bc 1ce2 a23b 72b0 a4bc dd5f 153d
00000180: 4a6a 6fbc c4d3 223c c6bb bbbc 1fca 043d
00000190: 254e 2fbc 0fc2 5b3c 1826 67bc a6d3 093d
000001a0: f5e5 b03c 08a9 b5bc ea04 89bc 98b7 cdbc
000001b0: 417f 373c 6ee8 2dba 55cb 86bc e013 4bbc
000001c0: 0858 993c 7c12 1a3d 269f 63bc 116c 733c
000001d0: 800e cd3c 6837 8dbd c3ed 903b c189 3bbc
000001e0: e47d fabc 1f43 2a3c b060 813c a79c 16bd
000001f0: b5c2 8f3b f38b f8bb e2da 12bd 17e1 303c
0.0009441466 -0.014717946 -0.012233838 -0.0033609143 -0.003947659 0.011751065 0.011720619 -0.0074076997
0.0109734 -0.03131762 0.0035332795 0.062378034 -0.024283156 -0.034187015 0.01240684 0.045606446
-0.027897816 -0.01261596 -0.0017685853 0.050609164 -0.050946195 0.01628119 0.0053995578 -0.034483295
-0.031698555 -0.0019410461 -0.0003734619 0.009109197 -0.05610511 -0.07433204 -0.033095717 -0.036510006
0.027654795 0.028486779 -0.012222726 0.017017938 0.050604675 -0.0022901772 -0.02365346 -0.01324149
0.018339736 0.012828996 -0.0059955646 0.002299999 -0.01283585 0.025364444 0.017824955 -0.005455032
0.04127138 -0.0048683025 0.040825106 0.006041815 -0.034768827 -0.0036611548 -0.028471328 0.025814818
0.0129572395 -0.008814196 -0.0052915616 -0.0060653053 0.007671534 -0.039523445 -0.020900521 -0.010968886
-0.010102601 -0.034799855 -0.0044580833 0.016533067 -0.030804066 0.03352304 0.009560202 -0.0147493025
-0.005476668 -0.01794655 0.021931607 -0.006580869 -0.0036744606 0.009701495 -0.008732754 -0.020241993
-0.02223264 -0.015798926 0.019750668 0.0048613437 -0.0082208635 -0.03431455 0.009611545 -0.012249378
-0.014614393 -0.008869434 -0.060276743 0.0088677285 -0.011890367 0.004970802 -0.020103667 0.036468375
-0.014612744 0.009938184 -0.022916686 0.03241932 -0.010699783 0.013412966 -0.014108203 0.03364911
0.021594027 -0.022175327 -0.016725976 -0.025111958 0.011199773 -0.0006634061 -0.016454378 -0.012394875
0.018718734 0.037615284 -0.013892924 0.014857308 0.025031328 -0.068953335 0.0044228747 -0.011446417
-0.030577607 0.0103919795 0.015793175 -0.03677049 0.0043872246 -0.0075850426 -0.035853274 0.010795853
