python/handrate-model-encoder.tflite (tflite, 692016 bytes, 9 tensors)

encoder_lstm_2/lstm_cell/bias f4 [512]
0	0x3ca472ac	0.020074211
1	0xbd0c21b4	-0.03421183
2	0x3d6e9ba3	0.058253895
3	0x3d0af52c	0.03392522
4	0xbb830461	-0.0039983247
5	0xbd320b43	-0.04346777
6	0xbb4c81ee	-0.0031205374
7	0xbc9a01cc	-0.018799685
8	0xbd0572a1	-0.03258002
9	0x3d46d2bc	0.048540816
10	0xbd452407	-0.04813006
11	0x3c19decd	0.009391499
12	0xbc6bf9ab	-0.014402787
13	0xbc20b90e	-0.0098097455
14	0xbd068c8e	-0.032848887
15	0xbd0ea3aa	-0.03482405
16	0xbc23a511	-0.009988085
17	0xbd1857fe	-0.03719329
18	0xbce6a046	-0.028152596
19	0x3d09644e	0.033542924
20	0xbc6f2573	-0.014596331
21	0xbd46a31a	-0.04849539
22	0xbcd47162	-0.025932971
23	0xbc9f7261	-0.01946372
24	0x3d051036	0.032486163
25	0xbc213fe7	-0.009841896
26	0xbb844c7b	-0.0040374375
27	0x3d977ac7	0.07396465
28	0xbcac17ad	-0.021007383
29	0x3cc96fb2	0.024589393
30	0xbbc55e7f	-0.0060232277
31	0xbc4ee424	-0.012627635
32	0xbb9946a7	-0.004677612
33	0xbd3e911b	-0.046525102
34	0xbb544a10	-0.0032392778
35	0xbb032ef5	-0.0020017002
36	0x3c4f7c3d	0.012663898
37	0xbd2b3ab4	-0.04180403
38	0xbd121e38	-0.03567335
39	0xbca6af9b	-0.020347407
40	0xbc707c7e	-0.014678119
41	0xbcd00436	-0.025392633
42	0xbb2902cb	-0.0025789018
43	0xbd1458ce	-0.036217503
44	0xbd0c3aa9	-0.03423563
45	0xbce19947	-0.027538909
46	0xbcc60783	-0.024173504
47	0x3cadffe8	0.02124019
48	0x3bc53303	0.006018044
49	0xbc649a5d	-0.013952819
50	0x3cbca401	0.023027422
51	0xbd0d5e05	-0.034513492
52	0x3b821f05	0.003970983
53	0x3c81fa44	0.015866406
54	0x3c5fbd83	0.013656023
55	0xbd17aeab	-0.03703181
56	0x3c3dd7cf	0.011587097
57	0xbcf375d4	-0.02971927
58	0xbc651054	-0.013980944
59	0xbc9cda23	-0.019146984
60	0x3d1cdb41	0.038295034
61	0xbcf84af6	-0.030309182
62	0xbce472b2	-0.027886722
63	0xbc195a72	-0.009359943
64	0x3d86c208	0.06579977
65	0x3afb36e5	0.001916614
66	0xbb90a8fb	-0.0044146753
67	0xbccd6630	-0.02507314
68	0xbd175df5	-0.03695484
69	0xbbc6da5d	-0.0060685114
70	0xbce73ceb	-0.02822729
71	0xbc8aa918	-0.016926333
72	0xbc5e728b	-0.013577114
73	0xbcea3d82	-0.028593782
74	0xbc5a3c48	-0.013320036
75	0xbd4e2447	-0.050327566
76	0xbcf0c2fe	-0.029389855
77	0x3bfcdb48	0.00771657
78	0x3d0440fe	0.032288544
79	0xbd0ce843	-0.03440119
80	0x3b3e5ed5	0.0029048224
81	0xbc459bbc	-0.012061056
82	0xbbc4f269	-0.006010343
83	0x3b32755a	0.0027230592
84	0x3cca0c91	0.024664195
85	0xbcc09bd4	-0.023511805
86	0xbd24b521	-0.0402118
87	0x3ab17d6a	0.0013541405
88	0xbcd96dba	-0.02654158
89	0x3bed41c0	0.007240504
90	0x3caf3b17	0.02139048
91	0xbd02041b	-0.031742197
92	0xbd690f04	-0.056899086
93	0x3dd3cd70	0.103419185
94	0xbc9408e0	-0.018070638
95	0x3ccc8879	0.024967419
96	0xbd6a1f1a	-0.057158567
97	0xbd661e01	-0.056180958
98	0x3bd3ad04	0.006459834
99	0x3c90b675	0.017665127
100	0x3c817d19	0.015806722
101	0xbd874c14	-0.066063076
102	0x3cdda30c	0.027055286
103	0xbc7f0155	-0.015564282
104	0xbc6c61dd	-0.014427629
105	0xbcbaa80f	-0.022785215
106	0xbc8d4d77	-0.017248852
107	0x3cc663fc	0.024217598
108	0xbbc27eb4	-0.0059355143
109	0x3b6330a8	0.0034666453
110	0x3c67de92	0.014152186
111	0x3b0632d1	0.0020477066
112	0xbb8166d1	-0.0039490242
113	0x3d2cee06	0.042219184
114	0x3d2c81df	0.042116042
115	0x3ad29eb7	0.0016069029
116	0x3c499533	0.012303638
117	0xbd556cdb	-0.052105766
118	0x3c9b25f0	0.018938988
119	0xbaca73e4	-0.0015445915
120	0xbcd2318b	-0.02565839
121	0x3bcf4feb	0.0063266656
122	0xb9c211f3	-0.00037015937
123	0xbd30a529	-0.04312626
124	0xbd0ccc75	-0.034374673
125	0xbca6342c	-0.02028855
126	0xbcfe097b	-0.03101038
127	0xbd046332	-0.032321163
128	0x3f8094a8	1.0045366
129	0x3f7760d0	0.966321
130	0x3f87fb6f	1.0623606
131	0x3f84d200	1.0376587
132	0x3f7ae40f	0.9800424
133	0x3f796c72	0.974311
134	0x3f80dfad	1.006826
135	0x3f7e524e	0.99344337
136	0x3f808a20	1.0042152
137	0x3f812d7b	1.0092005
138	0x3f789091	0.9709559
139	0x3f81ea7c	1.0149684
140	0x3f7d1bbb	0.9887044
141	0x3f7c46bd	0.9854544
142	0x3f78bd9e	0.9716433
143	0x3f77b810	0.9676523
144	0x3f7fa6e8	0.99864054
145	0x3f7b8771	0.9825354
146	0x3f75ca40	0.96011734
147	0x3f8040e2	1.0019801
148	0x3f77a88d	0.96741563
149	0x3f75d9b9	0.96035343
150	0x3f7ec6c4	0.9952204
151	0x3f78fd13	0.9726116
152	0x3f84aa7d	1.0364529
153	0x3f7f77fc	0.99792457
154	0x3f791b07	0.97306865
155	0x3f86dec7	1.0536736
156	0x3f7b1167	0.9807343
157	0x3f819d53	1.0126137
158	0x3f7f9515	0.99836856
159	0x3f7f73e4	0.9978621
160	0x3f7dbe2c	0.99118304
161	0x3f78247d	0.96930677
162	0x3f81a7ea	1.0129368
163	0x3f806083	1.0029453
164	0x3f7fd76c	0.9993808
165	0x3f7878c0	0.9705925
166	0x3f7bff26	0.984362
167	0x3f78e865	0.97229606
168	0x3f8129be	1.0090864
169	0x3f7ef41b	0.99591225
170	0x3f795261	0.97391325
171	0x3f79374a	0.9734999
172	0x3f7a8986	0.97866094
173	0x3f78f8fb	0.97254914
174	0x3f7f52b5	0.99735576
175	0x3f8356eb	1.02609
176	0x3f7eab70	0.9948034
177	0x3f7bc4e7	0.98347324
178	0x3f82dfc7	1.0224541
179	0x3f76882a	0.9630152
180	0x3f7b79bc	0.98232627
181	0x3f82ddad	1.02239
182	0x3f82a74d	1.0207306
183	0x3f7643e1	0.96197325
184	0x3f806891	1.0031911
185	0x3f7c1174	0.9846413
186	0x3f80b3c7	1.0054864
187	0x3f7e863e	0.9942359
188	0x3f8360c5	1.0263907
189	0x3f796416	0.97418344
190	0x3f7b6320	0.9819813
191	0x3f74a93b	0.95570725
192	0x3f885b58	1.0652876
193	0x3f80de3f	1.0067824
194	0x3f7a487e	0.97766864
195	0x3f7b0a97	0.98063034
196	0x3f7b3537	0.98128074
197	0x3f81deeb	1.0146154
198	0x3f7b7048	0.982182
199	0x3f7c48d0	0.98548603
200	0x3f81fea2	1.0155833
201	0x3f76dbcc	0.96429133
202	0x3f7bbcea	0.98335135
203	0x3f7605d2	0.9610263
204	0x3f7f3319	0.99687344
205	0x3f81284e	1.0090425
206	0x3f82247e	1.0167387
207	0x3f7c4d42	0.98555386
208	0x3f7fe2b3	0.9995529
209	0x3f77f066	0.96851194
210	0x3f81dc86	1.0145423
211	0x3f80aebd	1.0053326
212	0x3f81d45a	1.014293
213	0x3f74aadb	0.95573205
214	0x3f79787e	0.9744948
215	0x3f7e1070	0.9924383
216	0x3f813b79	1.0096275
217	0x3f7d97cb	0.9905974
218	0x3f838f0e	1.0278032
219	0x3f76ad68	0.96358347
220	0x3f76da58	0.96426916
221	0x3f8ed548	1.1158838
222	0x3f7f844e	0.99811256
223	0x3f845ef5	1.0341479
224	0x3f7135a2	0.9422246
225	0x3f79ee2d	0.9762905
226	0x3f8043fa	1.0020745
227	0x3f817744	1.0114522
228	0x3f81ec67	1.0150269
229	0x3f77042f	0.9649076
230	0x3f81281d	1.0090367
231	0x3f766280	0.9624405
232	0x3f81bfb7	1.0136632
233	0x3f7bfb65	0.9843047
234	0x3f7f6e14	0.9977734
235	0x3f7c2d5b	0.98506707
236	0x3f7e3c9d	0.9931124
237	0x3f7b73b5	0.9822343
238	0x3f7e1e8c	0.9926536
239	0x3f820ce7	1.0160187
240	0x3f7c9e91	0.98679453
241	0x3f84d614	1.0377831
242	0x3f82a06d	1.0205208
243	0x3f81479c	1.0099978
244	0x3f821c5c	1.0164905
245	0x3f7606cb	0.96104115
246	0x3f852f1e	1.0405004
247	0x3f81bc5b	1.0135607
248	0x3f787d73	0.9706642
249	0x3f7d304d	0.98901826
250	0x3f7db3fb	0.99102753
251	0x3f795cda	0.97407305
252	0x3f7f7f3d	0.99803525
253	0x3f803ebb	1.0019144
254	0x3f7b1acd	0.9808777
255	0x3f7fd5af	0.9993543

conv1d/bias f4 [128]
0	0xbb0a66ce	-0.0021118405
1	0x3a95a3aa	0.0011416574
2	0xbabc16f5	-0.0014350103
3	0x3a17e082	0.0005793647
4	0x3affff4c	0.001953104
5	0x3bbcdd0a	0.0057636546
6	0x398a46ab	0.00026374063
7	0x3b0d4ded	0.002156134
8	0x3986dbca	0.00025722227
9	0xb9c1b4d6	-0.00036946562
10	0x3bd0265c	0.006352229
11	0xbb31096b	-0.002701367
12	0x3a38fed6	0.00070570165
13	0x3a624b03	0.00086323934
14	0x3a495cd3	0.00076813734
15	0x3bbb0a18	0.0057079904
16	0x3a8cc9f1	0.0010741336
17	0x3b5830b1	0.0032988007
18	0x3b405264	0.0029345984
19	0x3ab5bb72	0.0013865067
20	0x3a610496	0.0008583752
21	0xb947a504	-0.00019039592
22	0x3b9fa153	0.0048715263
23	0x392e571c	0.00016626384
24	0xba91e178	-0.0011129817
25	0x3a58ebb4	0.00082748686
26	0x3b020283	0.0019837923
27	0x3b3379fa	0.0027385936
28	0x3ad103d1	0.0015946572
29	0xbac80e99	-0.001526314
30	0x3aba163c	0.00141973
31	0x39785dc3	0.00023686052
32	0x3aba82b4	0.0014229626
33	0x39e06b99	0.00042804776
34	0x3ad11762	0.0015952403
35	0x3b99c72a	0.0046929317
36	0xba83a74d	-0.0010044366
37	0xba828509	-0.000995786
38	0xb927b255	-0.00015992795
39	0xbb089828	-0.0020842645
40	0x38f6c462	0.00011766773
41	0x3b3d17a7	0.002885321
42	0x3b964a5f	0.0045865024
43	0xb9d1a417	-0.00039985843
44	0x3b893d32	0.0041882033
45	0x3a42b065	0.00074267975
46	0xba9c48e7	-0.0011923582
47	0x39f6779f	0.000470099
48	0x3b2b0cd9	0.0026100187
49	0x3a977879	0.0011556289
50	0xbb14f166	-0.0022726892
51	0x3b267e0b	0.0025404717
52	0x3b3a2532	0.0028403518
53	0x3aca2290	0.0015421677
54	0xb9a5fa07	-0.00031657537
55	0x3a84622c	0.0010100058
56	0x3ae45e4a	0.001742312
57	0x3b03a1db	0.0020085487
58	0xbace4ec7	-0.001574003
59	0x3a16bb5d	0.0005749965
60	0xb985092f	-0.0002537458
61	0x3bac5a14	0.0052597616
62	0x3ae5c6f0	0.0017530601
63	0x3aed7bb3	0.001811853
64	0x3b6ef813	0.0036463782
65	0xb9a491bb	-0.00031389095
66	0x3b6af7c4	0.0035853246
67	0x38a7de7e	8.004623e-05
68	0xba972a54	-0.0011533
69	0xba5094af	-0.0007956726
70	0x3a78c06d	0.0009489123
71	0x3a866304	0.0010252898
72	0xb9c143d3	-0.00036862362
73	0x3a3a1ace	0.0007099331
74	0x3a73d7cc	0.00093018706
75	0x3a772361	0.0009427574
76	0x3b7f651e	0.0038970183
77	0x3a9c229b	0.0011912169
78	0xba3564d5	-0.0006919627
79	0x3bab465e	0.0052268943
80	0x3806930c	3.2085038e-05
81	0x3aef7327	0.0018268571
82	0xb71c2201	-9.306242e-06
83	0x3b4ff0d5	0.003172924
84	0x38a2db01	7.7655546e-05
85	0xb8d6741b	-0.000102259415
86	0xba0401e4	-0.0005035682
87	0x39285394	0.00016052864
88	0x3b526107	0.003210129
89	0x3aa6f929	0.001273905
90	0x3645e8a5	2.9490704e-06
91	0x3b1a92db	0.0023586068
92	0x3b87a2c5	0.0041392767
93	0x3aee7302	0.0018192234
94	0x3aa06fe9	0.0012240383
95	0x3b52e75a	0.0032181353
96	0x3ae17d9c	0.0017203572
97	0xb9c2cc23	-0.00037154657
98	0x3af834ed	0.0018936672
99	0x3ac83747	0.0015275263
100	0x3a2f6077	0.00066900946
101	0x3a9c8569	0.0011941615
102	0x3adfa47d	0.0017062571
103	0x3b29db09	0.0025917909
104	0x3b647bac	0.0034863753
105	0xba3295ac	-0.0006812464
106	0x3a61fe84	0.00086209946
107	0x3a3d9661	0.0007232186
108	0x3af35708	0.0018565366
109	0x3ab6271b	0.0013897152
110	0x3b3b7465	0.0028603312
111	0xb9c98dec	-0.00038443448
112	0x3ad0210d	0.001587899
113	0x3b1daf7d	0.0024060898
114	0xba0a6785	-0.0005279708
115	0x3a369572	0.0006965018
116	0x3addd25b	0.0016923653
117	0x3abbad51	0.001431862
118	0x3b18c7b6	0.0023312396
119	0x3abe3776	0.0014512378
120	0x3a4e2548	0.00078638317
121	0x3a95fade	0.0011442562
122	0x39e2c987	0.0004325623
123	0x3b07a444	0.0020697275
124	0xb9fbdfa2	-0.0004804107
125	0xba581be4	-0.0008243902
126	0xbb124e89	-0.0022324643
127	0xbaa39a4d	-0.0012481898

std.constant6 f4 [128]
0	0x4003b42e	2.0578723
1	0x408410d4	4.127054
2	0x4009282b	2.1430767
3	0x4022eb8d	2.5456269
4	0x4042e320	3.0451126
5	0x404eaceb	3.229304
6	0x40089397	2.1340082
7	0x403b5794	2.9272203
8	0x4069be50	3.6522408
9	0x40768d4e	3.8523746
10	0x40aabb14	5.3353367
11	0x3fffec53	1.9993995
12	0x40990ada	4.7825747
13	0x40675cbc	3.615035
14	0x406e7458	3.725851
15	0x4069685d	3.6469948
16	0x3fbb3849	1.4626552
17	0x40823251	4.068642
18	0x408a3abe	4.3196707
19	0x401369e9	2.3033392
20	0x402dd8f4	2.7163668
21	0x40707710	3.757267
22	0x401132a2	2.2687154
23	0x407df801	3.968262
24	0x40988a93	4.766916
25	0x4016dc71	2.3572047
26	0x4019b764	2.4018183
27	0x40112f58	2.2685146
28	0x40551357	3.3293054
29	0x4004485c	2.0669165
30	0x407d1505	3.954408
31	0x400d70bc	2.2100058
32	0x3ff7db5c	1.9363818
33	0x401b27ea	2.4243112
34	0x406cc917	3.6997736
35	0x4094476a	4.6337175
36	0x408dba5b	4.4289985
37	0x403c6db5	2.944196
38	0x401c2f02	2.4403691
39	0x402ae33f	2.67012
40	0x408c88bf	4.3916926
41	0x40307f78	2.75778
42	0x40088738	2.133253
43	0x3ff0018c	1.8750472
44	0x408db5c3	4.4284377
45	0x3ffbdddd	1.9677082
46	0x40817277	4.0452228
47	0x40281070	2.6260033
48	0x40045263	2.0675285
49	0x400773eb	2.11645
50	0x4042dc27	3.044687
51	0x3fdf0836	1.7424381
52	0x401f3cc0	2.488083
53	0x40171490	2.36063
54	0x40224009	2.5351584
55	0x4067911c	3.6182318
56	0x405ecfa7	3.481424
57	0x401a4402	2.4104009
58	0x3fcd36c2	1.6032336
59	0x4029e4d1	2.6545908
60	0x4060a343	3.5099647
61	0x402cff55	2.7030842
62	0x40332d86	2.7996535
63	0x408bd6cf	4.3699718
64	0x3fe0643f	1.7530593
65	0x408fc4bf	4.492767
66	0x402d5289	2.7081625
67	0x403e49bb	2.9732502
68	0x401180fd	2.2734978
69	0x408124a4	4.0357227
70	0x4036d9d7	2.857046
71	0x406813a1	3.626198
72	0x40198880	2.3989563
73	0x4026bc93	2.6052597
74	0x409c6665	4.8874993
75	0x3ff11505	1.883454
76	0x407eef99	3.9833739
77	0x402d682f	2.7094839
78	0x403f7e3d	2.99208
79	0x407b9a56	3.931295
80	0x3fe69960	1.8015556
81	0x40508b37	3.258497
82	0x4006a27d	2.1036675
83	0x3fe5b713	1.7946495
84	0x400f4040	2.2382965
85	0x4021a7e8	2.5258732
86	0x4073988f	3.8061864
87	0x408d6f40	4.4198303
88	0x400bf9a9	2.187113
89	0x40720182	3.781342
90	0x403577c5	2.8354352
91	0x4086d643	4.213655
92	0x408bd943	4.370271
93	0x40398e44	2.8993082
94	0x40010ed2	2.0165296
95	0x40a56bd5	5.169413
96	0x403fa19b	2.9942386
97	0x400b0216	2.1720023
98	0x40921bfb	4.5659156
99	0x40114c0f	2.2702672
100	0x4018db10	2.3883705
101	0x4022ae2c	2.5418806
102	0x4005daab	2.0914714
103	0x40298ee2	2.6493459
104	0x402a13b3	2.6574523
105	0x4016f29a	2.3585572
106	0x400ba37c	2.1818533
107	0x3faf29f6	1.368468
108	0x3ff20934	1.8909059
109	0x4004cae9	2.0748847
110	0x4027545a	2.6145234
111	0x3fca243b	1.5792307
112	0x40313b33	2.7692382
113	0x40285949	2.6304495
114	0x40043af9	2.0660994
115	0x403c3c3a	2.941176
116	0x40512e42	3.2684484
117	0x4018d677	2.38809
118	0x409404e3	4.6255965
119	0x408ff4a1	4.498612
120	0x40194b0a	2.395205
121	0x3fc3991d	1.5281101
122	0x401b957e	2.4309993
123	0x4009e741	2.1547396
124	0x4007089c	2.1099005
125	0x40605f0e	3.5058017
126	0x4038f33b	2.8898456
127	0x4049a39a	3.1506104

std.constant7 f4 [128]
0	0xbfd956e8	-1.6979647
1	0x3eaf6f96	0.3426482
2	0x3ff4ce0c	1.912538
3	0xbea08c65	-0.31357113
4	0xbeab0f1f	-0.33409974
5	0x3fdef983	1.7419895
6	0xc017e1c7	-2.3731554
7	0x3f8d18cc	1.1023192
8	0xbf40aca0	-0.75263405
9	0x40006dd9	2.0067046
10	0x3f3fbe75	0.7489999
11	0xbff9d881	-1.9519197
12	0xbf3cf4f9	-0.738113
13	0x3ff47708	1.9098825
14	0xbfe4efdc	-1.7885699
15	0x40048497	2.0705926
16	0x3fdf5829	1.7448779
17	0xbfbadef5	-1.4599291
18	0xc0040e0a	-2.0633569
19	0xc00304e7	-2.0471742
20	0xc007d064	-2.1220942
21	0xbfdb9f99	-1.715808
22	0x3ff401ca	1.9063046
23	0xbf508f25	-0.8146842
24	0x3b547580	0.0032418668
25	0xc0146649	-2.318743
26	0xc020112d	-2.5010483
27	0xc015231e	-2.3302684
28	0xbfba66f8	-1.4562674
29	0xc00f6ab9	-2.2408888
30	0xbef807cd	-0.48443452
31	0xbff47e6d	-1.9101082
32	0xc0139f33	-2.3065917
33	0x3ffa5d36	1.9559696
34	0x3f3b1174	0.73073506
35	0x3f083f39	0.5322147
36	0x3e6384a0	0.22218561
37	0xbf9675e3	-1.1754726
38	0xbfb5f3a2	-1.4214976
39	0x3f38e02a	0.7221705
40	0xbfccff40	-1.6015396
41	0x3fa0989a	1.254657
42	0x3fd8de73	1.6942886
43	0xbff4f3ea	-1.9136937
44	0x3f9d1335	1.2271487
45	0xc01383ec	-2.3049269
46	0xbf830f59	-1.0239059
47	0x3ff0b776	1.8805988
48	0x3f940f22	1.1567118
49	0xbf5c65c0	-0.8609276
50	0x3f8d408b	1.1035322
51	0xbff699bf	-1.926567
52	0x401f47e4	2.4887629
53	0x3f668aa4	0.900553
54	0x401af329	2.4210913
55	0xbfa74aa8	-1.3069658
56	0xbc84e883	-0.016224151
57	0x4003e667	2.0609376
58	0x3fcddfc7	1.6083916
59	0xbfb4eb73	-1.4134353
60	0xbe542dbe	-0.20720574
61	0x3f298e67	0.66232914
62	0xbe6acd0d	-0.22929783
63	0xbf241695	-0.6409696
64	0x401bf7e6	2.4370055
65	0xbde34a28	-0.110981286
66	0x3f80b0ad	1.0053917
67	0xbfbb5dfc	-1.4638057
68	0x3f77c141	0.9677926
69	0xbb9b6098	-0.0047417395
70	0x3f19f7d5	0.60143787
71	0xbfc94e6a	-1.5727055
72	0x4011f138	2.2803478
73	0xc0173d7e	-2.3631282
74	0x3fa87f35	1.316382
75	0x400ed427	2.2316988
76	0x3f1722a6	0.59037244
77	0x3feee53d	1.8663708
78	0x40234733	2.5512207
79	0x3fba1f9c	1.4540896
80	0xc003edc3	-2.0613868
81	0xbfef23fd	-1.8682858
82	0xc0013247	-2.0186937
83	0x40133d12	2.3006024
84	0xbffeeb38	-1.9915533
85	0x3fbd3990	1.4783192
86	0x3e0eedd5	0.13957913
87	0x3fa0f4ad	1.2574669
88	0x400d4e15	2.2078907
89	0x3f70a587	0.94002575
90	0xbfbe59c2	-1.4871142
91	0xbfb954b0	-1.447897
92	0x3f873f2c	1.0566154
93	0xc01d305a	-2.4560761
94	0x4011ecb2	2.2800717
95	0x3fa769cf	1.3079165
96	0xbfda6383	-1.7061619
97	0xbf9e1436	-1.2349918
98	0x400a6ba4	2.1628199
99	0xbfe0a91a	-1.7551606
100	0xc01df3ce	-2.4680057
101	0x3fede4b0	1.8585415
102	0xc0157eb7	-2.335859
103	0xbfac0980	-1.3440399
104	0x400c1927	2.1890352
105	0xbfcc2ce2	-1.5951197
106	0x40131ef8	2.2987652
107	0x3ff34c97	1.9007748
108	0xbfb12b25	-1.3841292
109	0xbfd7c416	-1.6856716
110	0x3f5aac5a	0.8541924
111	0x3fe55fbe	1.7919843
112	0xbfd8f71c	-1.6950412
113	0x3fdb2ffa	1.7124016
114	0x400a7047	2.1631029
115	0xbeb4e662	-0.35332018
116	0x3dc81dfe	0.097713456
117	0xc02220b6	-2.5332465
118	0x3f6682c5	0.9004329
119	0xbe9028d0	-0.28156137
120	0xc01c79da	-2.4449372
121	0x3fe5bd49	1.794839
122	0xc00c4f67	-2.1923463
123	0x400a4840	2.1606598
124	0xbf6f1559	-0.9339195
125	0x3fe56316	1.7920864
126	0xbe1dc0a6	-0.15405521
127	0xbfbc71cc	-1.4722228

std.constant8 f4 [128]
0	0x00000000	0.0
1	0x00000000	0.0
2	0x00000000	0.0
3	0x00000000	0.0
4	0x00000000	0.0
5	0x00000000	0.0
6	0x00000000	0.0
7	0x00000000	0.0
8	0x00000000	0.0
9	0x00000000	0.0
10	0x00000000	0.0
11	0x00000000	0.0
12	0x00000000	0.0
13	0x00000000	0.0
14	0x00000000	0.0
15	0x00000000	0.0
16	0x00000000	0.0
17	0x00000000	0.0
18	0x00000000	0.0
19	0x00000000	0.0
20	0x00000000	0.0
21	0x00000000	0.0
22	0x00000000	0.0
23	0x00000000	0.0
24	0x00000000	0.0
25	0x00000000	0.0
26	0x00000000	0.0
27	0x00000000	0.0
28	0x00000000	0.0
29	0x00000000	0.0
30	0x00000000	0.0
31	0x00000000	0.0
32	0x00000000	0.0
33	0x00000000	0.0
34	0x00000000	0.0
35	0x00000000	0.0
36	0x00000000	0.0
37	0x00000000	0.0
38	0x00000000	0.0
39	0x00000000	0.0
40	0x00000000	0.0
41	0x00000000	0.0
42	0x00000000	0.0
43	0x00000000	0.0
44	0x00000000	0.0
45	0x00000000	0.0
46	0x00000000	0.0
47	0x00000000	0.0
48	0x00000000	0.0
49	0x00000000	0.0
50	0x00000000	0.0
51	0x00000000	0.0
52	0x00000000	0.0
53	0x00000000	0.0
54	0x00000000	0.0
55	0x00000000	0.0
56	0x00000000	0.0
57	0x00000000	0.0
58	0x00000000	0.0
59	0x00000000	0.0
60	0x00000000	0.0
61	0x00000000	0.0
62	0x00000000	0.0
63	0x00000000	0.0
64	0x00000000	0.0
65	0x00000000	0.0
66	0x00000000	0.0
67	0x00000000	0.0
68	0x00000000	0.0
69	0x00000000	0.0
70	0x00000000	0.0
71	0x00000000	0.0
72	0x00000000	0.0
73	0x00000000	0.0
74	0x00000000	0.0
75	0x00000000	0.0
76	0x00000000	0.0
77	0x00000000	0.0
78	0x00000000	0.0
79	0x00000000	0.0
80	0x00000000	0.0
81	0x00000000	0.0
82	0x00000000	0.0
83	0x00000000	0.0
84	0x00000000	0.0
85	0x00000000	0.0
86	0x00000000	0.0
87	0x00000000	0.0
88	0x00000000	0.0
89	0x00000000	0.0
90	0x00000000	0.0
91	0x00000000	0.0
92	0x00000000	0.0
93	0x00000000	0.0
94	0x00000000	0.0
95	0x00000000	0.0
96	0x00000000	0.0
97	0x00000000	0.0
98	0x00000000	0.0
99	0x00000000	0.0
100	0x00000000	0.0
101	0x00000000	0.0
102	0x00000000	0.0
103	0x00000000	0.0
104	0x00000000	0.0
105	0x00000000	0.0
106	0x00000000	0.0
107	0x00000000	0.0
108	0x00000000	0.0
109	0x00000000	0.0
110	0x00000000	0.0
111	0x00000000	0.0
112	0x00000000	0.0
113	0x00000000	0.0
114	0x00000000	0.0
115	0x00000000	0.0
116	0x00000000	0.0
117	0x00000000	0.0
118	0x00000000	0.0
119	0x00000000	0.0
120	0x00000000	0.0
121	0x00000000	0.0
122	0x00000000	0.0
123	0x00000000	0.0
124	0x00000000	0.0
125	0x00000000	0.0
126	0x00000000	0.0
127	0x00000000	0.0

std.constant9 f4 [128, 1, 5, 59]
0	0xbc6eaa2e	-0.014566941
1	0x3d4bbc64	0.04974021
2	0xbd077d9c	-0.033078775
3	0x3d01c657	0.031683292
4	0x3ce3ed4f	0.027823118
5	0x3db4a916	0.08821313
6	0xbd31e14b	-0.043427747
7	0xbd3bda6c	-0.0458626
8	0xbc9f37a9	-0.01943572
9	0x3d82574d	0.063643076
10	0x3d4c2ba2	0.0498463
11	0x3c58b839	0.013227516
12	0xbd3e71ed	-0.046495367
13	0xbcb5cfb9	-0.022193776
14	0xbd0767f1	-0.03305811
15	0x3dc947c2	0.0982814
16	0xbd2952d8	-0.04133877
17	0xbcf03736	-0.029323202
18	0x3ba013de	0.004885181
19	0x3de8390a	0.11339004
20	0xbccb58fe	-0.024822708
21	0xbc4f297e	-0.01264417
22	0x3d80ffc1	0.06298781
23	0x3db4a7e4	0.08821085
24	0x3c88b681	0.016688587
25	0x3bf67161	0.00752084
26	0x3d3ddc49	0.04635266
27	0x3dad6817	0.08467119
28	0x3db316be	0.08744572
29	0x3d844f0e	0.06460391
30	0xbd0adbe4	-0.03390111
31	0x3d27f370	0.041003644
32	0xbc3b7028	-0.011440314
33	0xbd55d55c	-0.05220543
34	0x3d69fd76	0.057126485
35	0xbd0f7935	-0.0350277
36	0xbd711b5c	-0.058863983
37	0x3d02559a	0.031819917
38	0xbd014f06	-0.031569503
39	0x3ca005f5	0.01953409
40	0x3dc60754	0.096693665
41	0x3dc09d9b	0.09405061
42	0x3d2f028d	0.042727042
43	0x3dc97a6d	0.09837804
44	0x3d503549	0.050832067
45	0x3c42227d	0.011849043
46	0xbd89fbdc	-0.067374915
47	0x3d7976e3	0.060904395
48	0xbd83e2cb	-0.06439742
49	0xbcefd4e3	-0.029276317
50	0x3d8539d3	0.0650517
51	0xbceb118d	-0.028694892
52	0x3d700453	0.058597874
53	0xbd371a9c	-0.04470311
54	0xbd73543f	-0.059406515
55	0x3c881d71	0.016615601
56	0xbc260eda	-0.010135377
57	0xbda7788f	-0.081772916
58	0x3d0347de	0.03205096
59	0xbd2e4c47	-0.042553212
60	0xbd060a69	-0.03272477
61	0xb9fdaa9f	-0.00048383043
62	0x3d3a79fb	0.045526486
63	0xbd37a74f	-0.044837292
64	0x3d4abf39	0.04949877
65	0x3d120885	0.035652656
66	0xbd7ea4d6	-0.06216892
67	0xbd5c22f1	-0.05374426
68	0xbd1e4962	-0.038644202
69	0xbdb2ce30	-0.087307334
70	0xbbe84ca6	-0.0070892153
71	0xbc116f9a	-0.008876706
72	0xbc79bff9	-0.015243524
73	0xbd91b352	-0.07114281
74	0xbce6de71	-0.02818224
75	0x3d1b038d	0.037845183
76	0xbd36cd72	-0.04462952
77	0x3d0e16cb	0.034689706
78	0xbc2fdd34	-0.010733891
79	0x3dc0284d	0.09382687
80	0x3d9c29c6	0.07625155
81	0x3be2bcda	0.0069194855
82	0xbbb14811	-0.0054102023
83	0x3d7a788d	0.061150122
84	0x3cfa6e1f	0.030570088
85	0x3c829f5f	0.015945135
86	0x3c53dbb4	0.012930799
87	0x3db1c8d1	0.08680881
88	0x3d97816f	0.073977344
89	0x3c93e7d4	0.01805488
90	0xbc4275ed	-0.011868936
91	0x3d02566c	0.0318207
92	0xbd49212a	-0.049103893
93	0x3d8e62a5	0.06952409
94	0xbd84da5b	-0.064869605
95	0x3a9dcd84	0.0012039398
96	0x3cfe72d0	0.031060606
97	0xbcf8a312	-0.030351195
98	0xbce790f5	-0.028267363
99	0x3da53803	0.08067324
100	0x3cae367b	0.021266213
101	0x3dc36cf6	0.09542267
102	0x3da5220b	0.08063134
103	0x3cf8347f	0.03029847
104	0x3c63db2c	0.013907235
105	0x3c5dd286	0.013538962
106	0xbd77fffe	-0.060546868
107	0xbd71dcc9	-0.059048448
108	0xbcc455b5	-0.02396665
109	0xbd4e33d0	-0.05034238
110	0xbcc768a4	-0.024341889
111	0x3d1f2a13	0.038858484
112	0xbd8007be	-0.06251477
113	0xbdb5f73b	-0.08885046
114	0xbdae2930	-0.0850395
115	0x3d3f964a	0.046774186
116	0x3cdad587	0.026713146
117	0xbdda3cd1	-0.10656131
118	0x3cddd648	0.027079716
119	0xbd0c51d4	-0.034257725
120	0x3ca8b19d	0.020592505
121	0xbc8bd768	-0.017070487
122	0x3b4555f3	0.0030111044
123	0xbc1cd05a	-0.009571159
124	0x3cf7ad41	0.030233981
125	0x3d555f18	0.05209264
126	0xbc5f1c78	-0.013617627
127	0xbd946dab	-0.0724748
128	0x3d6e5959	0.058190677
129	0xbcfa0cbe	-0.030523654
130	0x3d7555d0	0.05989629
131	0xbd39442a	-0.045231022
132	0xbd2f663e	-0.042822115
133	0x3d157ffa	0.036499
134	0x3d71490c	0.058907554
135	0x3d9a148c	0.0752345
136	0x3caa7aab	0.020810446
137	0x3d1c3a4a	0.038141526
138	0x3d62033d	0.05517887
139	0x3d66e9f2	0.05637545
140	0xbd30eef4	-0.043196633
141	0xbd4800c0	-0.04882884
142	0x3d2f0ce5	0.042736907
143	0x3cbeb7a0	0.023280919
144	0x3da5b2eb	0.080907665
145	0x3d72c25f	0.059267398
146	0xbd687ebb	-0.056761485
147	0x3cc59fc5	0.024124036
148	0xbc902d72	-0.017599795
149	0xbd98358d	-0.07432089
150	0xbc2c0785	-0.01049984
151	0xbd9a0480	-0.075203896
152	0x3c5266eb	0.01284192
153	0xbcd74e24	-0.026282378
154	0x3d63d58f	0.055623587
155	0xbd457b9d	-0.04821359
156	0xbd363af0	-0.0444898
157	0x3db015fb	0.085979424
158	0xbb95651e	-0.0045591732
159	0x3d03968f	0.032126006
160	0x3d95f59c	0.07322237
161	0x3dcfe868	0.1015175
162	0xbd8065f6	-0.062694475
163	0x3d074abe	0.033030264
164	0xbd93f6b6	-0.07224791
165	0xbd85cfe8	-0.065337956
166	0x3cc37ab7	0.023862226
167	0xbd955509	-0.0729161
168	0xbd10f1c4	-0.035386816
169	0xbc578f49	-0.01315672
170	0x3d41a473	0.04727597
171	0xbd846c86	-0.06466012
172	0x3d2b2999	0.041787717
173	0xbdc9403f	-0.09826707
174	0xbd16410e	-0.036683135
175	0xbc18458d	-0.009293926
176	0xbd83b51d	-0.06431029
177	0x39902867	0.00027495922
178	0xbc2cfe54	-0.010558683
179	0xbc8b1c75	-0.016981343
180	0xbcf65679	-0.03007053
181	0xbd77c96c	-0.060494825
182	0x3cf12ec2	0.029441241
183	0x3d23f4a7	0.04002824
184	0xbd65572a	-0.05599133
185	0x3d14d18f	0.036332663
186	0x3db1dd37	0.086847715
187	0xbd2d3aa5	-0.042292256
188	0xbc89647c	-0.016771547
189	0x3dacdfd4	0.08441129
190	0x3c853bed	0.016263926
191	0x3d5c6460	0.053806663
192	0xbd0a990c	-0.033837363
193	0xbd6ca5ab	-0.05777518
194	0xbd1bb1d2	-0.03801138
195	0x3d526df7	0.051374402
196	0x3d929698	0.0715763
197	0xbc20ff1b	-0.009826447
198	0xbd482c95	-0.04887064
199	0x3d44d515	0.048054773
200	0x3dcd503e	0.100250706
201	0x3d70823c	0.05871795
202	0x3dd3cd0d	0.10341845
203	0x3cc2dda2	0.023787323
204	0x3c6fcb5d	0.014635888
205	0xbc94a62d	-0.018145645
206	0x3cf6e18b	0.030136844
207	0x3de3eefe	0.111295685
208	0xbd04d4ac	-0.032429382
209	0xbd35977a	-0.044333912
210	0xbce7cb2d	-0.028295124
211	0x3d0c63fb	0.034275036
212	0xbbca93b5	-0.006182159
213	0xbd46bb74	-0.048518613
214	0xbd4b56ac	-0.049643204
215	0x3d1d3deb	0.038389128
216	0xbbc261a8	-0.0059320517
217	0x3d2d72ee	0.042345934
218	0xbd618f51	-0.055068318
219	0xbc8164e0	-0.015795171
220	0xbd7d22ca	-0.061800756
221	0xbca16afa	-0.01970433
222	0xbd03a722	-0.032141812
223	0x3d539adf	0.05166137
224	0xbd4fddc6	-0.05074861
225	0x3d735024	0.0594026
226	0x3d38b1a0	0.04509127
227	0xbc94a5d2	-0.018145476
228	0xbbfe4642	-0.00775984
229	0x3d6159c0	0.055017233
230	0xbcf77ccb	-0.030210873
231	0xbd143165	-0.03617992
232	0xbcd76970	-0.026295394
233	0xbd06792b	-0.0328304
234	0xbca0da7f	-0.019635437
235	0x3c2fc516	0.010728141
236	0x3d8cd727	0.068769746
237	0x3c3f9b6d	0.011694771
238	0xbd0cb78b	-0.034354728
239	0x3d07180b	0.032981914
240	0x3d7ec982	0.06220389
241	0xbd3c6ac8	-0.046000272
242	0x3d06a32b	0.032870453
243	0x3d8bc0e0	0.06823897
244	0x3cd679f5	0.0261812
245	0xbd35249a	-0.04422436
246	0x3dad7917	0.08470362
247	0x3dd2b738	0.102888525
248	0x3d8718aa	0.06596501
249	0xbc405389	-0.011738666
250	0xbd284b25	-0.04108729
251	0x3cf1fb96	0.02953891
252	0x3dd8c7ee	0.105850086
253	0x3df25f90	0.11834633
254	0xbc61955b	-0.013768519
255	0x3dbf1200	0.09329605

encoder_lstm_2/lstm_cell/bias1 f4 [512]
0	0x3ca472ac	0.020074211
1	0xbd0c21b4	-0.03421183
2	0x3d6e9ba3	0.058253895
3	0x3d0af52c	0.03392522
4	0xbb830461	-0.0039983247
5	0xbd320b43	-0.04346777
6	0xbb4c81ee	-0.0031205374
7	0xbc9a01cc	-0.018799685
8	0xbd0572a1	-0.03258002
9	0x3d46d2bc	0.048540816
10	0xbd452407	-0.04813006
11	0x3c19decd	0.009391499
12	0xbc6bf9ab	-0.014402787
13	0xbc20b90e	-0.0098097455
14	0xbd068c8e	-0.032848887
15	0xbd0ea3aa	-0.03482405
16	0xbc23a511	-0.009988085
17	0xbd1857fe	-0.03719329
18	0xbce6a046	-0.028152596
19	0x3d09644e	0.033542924
20	0xbc6f2573	-0.014596331
21	0xbd46a31a	-0.04849539
22	0xbcd47162	-0.025932971
23	0xbc9f7261	-0.01946372
24	0x3d051036	0.032486163
25	0xbc213fe7	-0.009841896
26	0xbb844c7b	-0.0040374375
27	0x3d977ac7	0.07396465
28	0xbcac17ad	-0.021007383
29	0x3cc96fb2	0.024589393
30	0xbbc55e7f	-0.0060232277
31	0xbc4ee424	-0.012627635
32	0xbb9946a7	-0.004677612
33	0xbd3e911b	-0.046525102
34	0xbb544a10	-0.0032392778
35	0xbb032ef5	-0.0020017002
36	0x3c4f7c3d	0.012663898
37	0xbd2b3ab4	-0.04180403
38	0xbd121e38	-0.03567335
39	0xbca6af9b	-0.020347407
40	0xbc707c7e	-0.014678119
41	0xbcd00436	-0.025392633
42	0xbb2902cb	-0.0025789018
43	0xbd1458ce	-0.036217503
44	0xbd0c3aa9	-0.03423563
45	0xbce19947	-0.027538909
46	0xbcc60783	-0.024173504
47	0x3cadffe8	0.02124019
48	0x3bc53303	0.006018044
49	0xbc649a5d	-0.013952819
50	0x3cbca401	0.023027422
51	0xbd0d5e05	-0.034513492
52	0x3b821f05	0.003970983
53	0x3c81fa44	0.015866406
54	0x3c5fbd83	0.013656023
55	0xbd17aeab	-0.03703181
56	0x3c3dd7cf	0.011587097
57	0xbcf375d4	-0.02971927
58	0xbc651054	-0.013980944
59	0xbc9cda23	-0.019146984
60	0x3d1cdb41	0.038295034
61	0xbcf84af6	-0.030309182
62	0xbce472b2	-0.027886722
63	0xbc195a72	-0.009359943
64	0x3d86c208	0.06579977
65	0x3afb36e5	0.001916614
66	0xbb90a8fb	-0.0044146753
67	0xbccd6630	-0.02507314
68	0xbd175df5	-0.03695484
69	0xbbc6da5d	-0.0060685114
70	0xbce73ceb	-0.02822729
71	0xbc8aa918	-0.016926333
72	0xbc5e728b	-0.013577114
73	0xbcea3d82	-0.028593782
74	0xbc5a3c48	-0.013320036
75	0xbd4e2447	-0.050327566
76	0xbcf0c2fe	-0.029389855
77	0x3bfcdb48	0.00771657
78	0x3d0440fe	0.032288544
79	0xbd0ce843	-0.03440119
80	0x3b3e5ed5	0.0029048224
81	0xbc459bbc	-0.012061056
82	0xbbc4f269	-0.006010343
83	0x3b32755a	0.0027230592
84	0x3cca0c91	0.024664195
85	0xbcc09bd4	-0.023511805
86	0xbd24b521	-0.0402118
87	0x3ab17d6a	0.0013541405
88	0xbcd96dba	-0.02654158
89	0x3bed41c0	0.007240504
90	0x3caf3b17	0.02139048
91	0xbd02041b	-0.031742197
92	0xbd690f04	-0.056899086
93	0x3dd3cd70	0.103419185
94	0xbc9408e0	-0.018070638
95	0x3ccc8879	0.024967419
96	0xbd6a1f1a	-0.057158567
97	0xbd661e01	-0.056180958
98	0x3bd3ad04	0.006459834
99	0x3c90b675	0.017665127
100	0x3c817d19	0.015806722
101	0xbd874c14	-0.066063076
102	0x3cdda30c	0.027055286
103	0xbc7f0155	-0.015564282
104	0xbc6c61dd	-0.014427629
105	0xbcbaa80f	-0.022785215
106	0xbc8d4d77	-0.017248852
107	0x3cc663fc	0.024217598
108	0xbbc27eb4	-0.0059355143
109	0x3b6330a8	0.0034666453
110	0x3c67de92	0.014152186
111	0x3b0632d1	0.0020477066
112	0xbb8166d1	-0.0039490242
113	0x3d2cee06	0.042219184
114	0x3d2c81df	0.042116042
115	0x3ad29eb7	0.0016069029
116	0x3c499533	0.012303638
117	0xbd556cdb	-0.052105766
118	0x3c9b25f0	0.018938988
119	0xbaca73e4	-0.0015445915
120	0xbcd2318b	-0.02565839
121	0x3bcf4feb	0.0063266656
122	0xb9c211f3	-0.00037015937
123	0xbd30a529	-0.04312626
124	0xbd0ccc75	-0.034374673
125	0xbca6342c	-0.02028855
126	0xbcfe097b	-0.03101038
127	0xbd046332	-0.032321163
128	0x3f8094a8	1.0045366
129	0x3f7760d0	0.966321
130	0x3f87fb6f	1.0623606
131	0x3f84d200	1.0376587
132	0x3f7ae40f	0.9800424
133	0x3f796c72	0.974311
134	0x3f80dfad	1.006826
135	0x3f7e524e	0.99344337
136	0x3f808a20	1.0042152
137	0x3f812d7b	1.0092005
138	0x3f789091	0.9709559
139	0x3f81ea7c	1.0149684
140	0x3f7d1bbb	0.9887044
141	0x3f7c46bd	0.9854544
142	0x3f78bd9e	0.9716433
143	0x3f77b810	0.9676523
144	0x3f7fa6e8	0.99864054
145	0x3f7b8771	0.9825354
146	0x3f75ca40	0.96011734
147	0x3f8040e2	1.0019801
148	0x3f77a88d	0.96741563
149	0x3f75d9b9	0.96035343
150	0x3f7ec6c4	0.9952204
151	0x3f78fd13	0.9726116
152	0x3f84aa7d	1.0364529
153	0x3f7f77fc	0.99792457
154	0x3f791b07	0.97306865
155	0x3f86dec7	1.0536736
156	0x3f7b1167	0.9807343
157	0x3f819d53	1.0126137
158	0x3f7f9515	0.99836856
159	0x3f7f73e4	0.9978621
160	0x3f7dbe2c	0.99118304
161	0x3f78247d	0.96930677
162	0x3f81a7ea	1.0129368
163	0x3f806083	1.0029453
164	0x3f7fd76c	0.9993808
165	0x3f7878c0	0.9705925
166	0x3f7bff26	0.984362
167	0x3f78e865	0.97229606
168	0x3f8129be	1.0090864
169	0x3f7ef41b	0.99591225
170	0x3f795261	0.97391325
171	0x3f79374a	0.9734999
172	0x3f7a8986	0.97866094
173	0x3f78f8fb	0.97254914
174	0x3f7f52b5	0.99735576
175	0x3f8356eb	1.02609
176	0x3f7eab70	0.9948034
177	0x3f7bc4e7	0.98347324
178	0x3f82dfc7	1.0224541
179	0x3f76882a	0.9630152
180	0x3f7b79bc	0.98232627
181	0x3f82ddad	1.02239
182	0x3f82a74d	1.0207306
183	0x3f7643e1	0.96197325
184	0x3f806891	1.0031911
185	0x3f7c1174	0.9846413
186	0x3f80b3c7	1.0054864
187	0x3f7e863e	0.9942359
188	0x3f8360c5	1.0263907
189	0x3f796416	0.97418344
190	0x3f7b6320	0.9819813
191	0x3f74a93b	0.95570725
192	0x3f885b58	1.0652876
193	0x3f80de3f	1.0067824
194	0x3f7a487e	0.97766864
195	0x3f7b0a97	0.98063034
196	0x3f7b3537	0.98128074
197	0x3f81deeb	1.0146154
198	0x3f7b7048	0.982182
199	0x3f7c48d0	0.98548603
200	0x3f81fea2	1.0155833
201	0x3f76dbcc	0.96429133
202	0x3f7bbcea	0.98335135
203	0x3f7605d2	0.9610263
204	0x3f7f3319	0.99687344
205	0x3f81284e	1.0090425
206	0x3f82247e	1.0167387
207	0x3f7c4d42	0.98555386
208	0x3f7fe2b3	0.9995529
209	0x3f77f066	0.96851194
210	0x3f81dc86	1.0145423
211	0x3f80aebd	1.0053326
212	0x3f81d45a	1.014293
213	0x3f74aadb	0.95573205
214	0x3f79787e	0.9744948
215	0x3f7e1070	0.9924383
216	0x3f813b79	1.0096275
217	0x3f7d97cb	0.9905974
218	0x3f838f0e	1.0278032
219	0x3f76ad68	0.96358347
220	0x3f76da58	0.96426916
221	0x3f8ed548	1.1158838
222	0x3f7f844e	0.99811256
223	0x3f845ef5	1.0341479
224	0x3f7135a2	0.9422246
225	0x3f79ee2d	0.9762905
226	0x3f8043fa	1.0020745
227	0x3f817744	1.0114522
228	0x3f81ec67	1.0150269
229	0x3f77042f	0.9649076
230	0x3f81281d	1.0090367
231	0x3f766280	0.9624405
232	0x3f81bfb7	1.0136632
233	0x3f7bfb65	0.9843047
234	0x3f7f6e14	0.9977734
235	0x3f7c2d5b	0.98506707
236	0x3f7e3c9d	0.9931124
237	0x3f7b73b5	0.9822343
238	0x3f7e1e8c	0.9926536
239	0x3f820ce7	1.0160187
240	0x3f7c9e91	0.98679453
241	0x3f84d614	1.0377831
242	0x3f82a06d	1.0205208
243	0x3f81479c	1.0099978
244	0x3f821c5c	1.0164905
245	0x3f7606cb	0.96104115
246	0x3f852f1e	1.0405004
247	0x3f81bc5b	1.0135607
248	0x3f787d73	0.9706642
249	0x3f7d304d	0.98901826
250	0x3f7db3fb	0.99102753
251	0x3f795cda	0.97407305
252	0x3f7f7f3d	0.99803525
253	0x3f803ebb	1.0019144
254	0x3f7b1acd	0.9808777
255	0x3f7fd5af	0.9993543

while/MatMul_1 f4 [512, 128]
0	0x3d4c1581	0.049825195
1	0x3b663402	0.0035126214
2	0xbdb0e2f0	-0.08637035
3	0x3d2aa2da	0.041659214
4	0xbd39967b	-0.045309525
5	0x3dacb4ae	0.084328994
6	0xbd831149	-0.06399781
7	0xbd22639c	-0.039645776
8	0xbd9c0a8b	-0.076191984
9	0x3d0931f2	0.033494897
10	0xbd01ab35	-0.031657416
11	0x3dcbe01b	0.09954854
12	0xbd6c058f	-0.05762249
13	0x3c16e66b	0.009210209
14	0xbd059cd5	-0.03262027
15	0xbd5a6fb5	-0.05332919
16	0xbd33b265	-0.043871302
17	0x3d94f8c1	0.072740085
18	0xbcb23efb	-0.021758547
19	0x3d41e9d3	0.047342133
20	0xbbe3fbe7	-0.0069575193
21	0x3bb762ef	0.0055965106
22	0xbc0fdd69	-0.008780816
23	0x3e12cbae	0.1433551
24	0xbd9b1174	-0.07571688
25	0xbd62f35d	-0.05540787
26	0xbc8fd9c2	-0.01755989
27	0xbc44f821	-0.012022049
28	0xbd5332a3	-0.051561963
29	0xbcfbf192	-0.030754838
30	0xbb18779e	-0.0023264657
31	0x3c0c75bf	0.008572995
32	0x3af22a1e	0.0018475687
33	0x3d26f224	0.040758267
34	0x3c612abb	0.013743098
35	0x3d1fe097	0.039032545
36	0x3d0a69b7	0.033792224
37	0x3da9ca8e	0.08290587
38	0xbc86db9b	-0.016462138
39	0x3d052f73	0.032515954
40	0x3cddaf19	0.027061032
41	0xbd681d7e	-0.05666875
42	0xbd0699e3	-0.0328616
43	0x3db868f8	0.09004396
44	0xbd482346	-0.048861764
45	0x3c27a818	0.010232948
46	0xbd64a29c	-0.05581914
47	0xbc8fbbdd	-0.017545635
48	0xbd6ff0fd	-0.058579434
49	0xbbb3f487	-0.0054917964
50	0x3d88e9a8	0.066851914
51	0x3c8747ad	0.01651367
52	0xbd1a19f1	-0.037622396
53	0xbd61f5ac	-0.05516593
54	0x3c98ef18	0.018668696
55	0x3caf4fa8	0.021400288
56	0xbbedae6e	-0.0072534597
57	0x3ae3fdb6	0.0017394337
58	0xbca3932c	-0.019967638
59	0xbc8acfc2	-0.01694477
60	0x3d5d360a	0.054006614
61	0x3dcc2674	0.09968272
62	0x3d25b81e	0.04045879
63	0x3d3445a2	0.04401172
64	0x3c4faedc	0.012675967
65	0x3d8e424f	0.06946241
66	0xbc6815e6	-0.014165377
67	0x3a20756b	0.0006121012
68	0x3ba5cb07	0.005059603
69	0x3b9c8458	0.004776519
70	0x3bb63fd9	0.0055618105
71	0x3bea71f4	0.0071546976
72	0xbd1275e7	-0.03575697
73	0xbd4e3021	-0.050338868
74	0xbcc707b5	-0.024295667
75	0xbda6105a	-0.081085876
76	0xbbf6895c	-0.0075236987
77	0xbb9ff5a6	-0.0048815785
78	0x3d6a4413	0.057193827
79	0x398c4acf	0.00026758618
80	0xbe0da3ab	-0.13831966
81	0xbda65462	-0.081215635
82	0xbb845fe0	-0.0040397495
83	0x3cadf6b7	0.021235807
84	0xbc224cb6	-0.009905985
85	0x3d924ff0	0.07144153
86	0x3d15fb5f	0.03661668
87	0xbd4719b0	-0.048608482
88	0x3c6cb3a7	0.014447129
89	0x3d0c7fe8	0.03430167
90	0xbda8cb8e	-0.0824195
91	0xbcf94efd	-0.030433172
92	0x3d05a9fe	0.03263282
93	0x3ce869ad	0.028370703
94	0x3c4811da	0.012211287
95	0x3be1f2b9	0.00689539
96	0xbd325ff7	-0.04354855
97	0x3cc53ba7	0.024076296
98	0x3d092404	0.033481613
99	0x3a9763d2	0.0011550135
100	0xbd5df97c	-0.054193005
101	0x3d1b25ea	0.037877955
102	0xbcdb402e	-0.026764002
103	0x3ce25eaf	0.02763304
104	0x3d66ba0e	0.05632978
105	0x3ce197ad	0.027538145
106	0x3d2375be	0.03990721
107	0xbcad899b	-0.02118378
108	0xbe015188	-0.12628758
109	0xbd3b64a6	-0.045750283
110	0x3d2f7f51	0.042846028
111	0x3d614fc8	0.055007726
112	0x3ccafe99	0.024779605
113	0x3d0d392b	0.034478348
114	0x3cfa7e4d	0.030577803
115	0x3e02aa96	0.12760386
116	0xbd0ddba7	-0.034633305
117	0xbc1e64e3	-0.009667608
118	0x3d4347ea	0.047676004
119	0xb9b7a956	-0.00035030645
120	0xbd12d71f	-0.035849687
121	0xbcf7ec28	-0.030263975
122	0xbdd3cde1	-0.10342003
123	0x3c24695f	0.010034888
124	0xbd953eae	-0.07287346
125	0x3d01a513	0.031651568
126	0xbcdb2f24	-0.026755877
127	0xbd843819	-0.06456012
128	0x3c0bd63f	0.008534967
129	0xbd2708e3	-0.04077996
130	0x3d177031	0.03697223
131	0x3c9373ba	0.017999519
132	0xbdc7e713	-0.09760871
133	0xbd440584	-0.047856823
134	0x3cde3887	0.027126564
135	0x3cd79e22	0.02632052
136	0x3d7d793a	0.06188319
137	0x3c5dc82c	0.013536494
138	0xbd98bf80	-0.07458401
139	0x3d2d7f8e	0.042357974
140	0x3d21ac0b	0.039470714
141	0xbd897322	-0.06711413
142	0xbc5e28d8	-0.013559543
143	0xbc13a764	-0.009012077
144	0x3d3dfa52	0.046381302
145	0xbded4e7f	-0.115872376
146	0x3d5f27ba	0.054481246
147	0x3d1294b8	0.03578636
148	0x3c3b4acf	0.01143141
149	0x3d1a5a94	0.03768404
150	0x3cafed7e	0.02147555
151	0xbca2df16	-0.019881766
152	0xbcb91b61	-0.022596063
153	0x3d8e2006	0.06939702
154	0xbd03cd65	-0.0321783
155	0xbd5d8102	-0.05407811
156	0x3a825c8b	0.0009945793
157	0x3d0272ad	0.031847645
158	0x3c3a4817	0.011369727
159	0xb9dc1b1f	-0.00041981877
160	0xbcad5060	-0.02115649
161	0x3d44d154	0.048051193
162	0x3d9cee4d	0.0766264
163	0xbd808546	-0.0627542
164	0xbc96ec5c	-0.018423252
165	0xbd38cf25	-0.045119423
166	0xbd8209b7	-0.06349509
167	0x3c9e205d	0.019302541
168	0xbdd53d9d	-0.104121424
169	0xbd3c43f0	-0.045963228
170	0xbc9550af	-0.01822695
171	0x3d971087	0.07376199
172	0x3c621b9f	0.013800531
173	0xbd4c1be5	-0.04983129
174	0x3d1cd661	0.038290385
175	0x3c9c9164	0.019112296
176	0xbd881cbf	-0.06646108
177	0x3cb1d7eb	0.021709403
178	0x3c94d365	0.018167207
179	0xbd13a2b9	-0.036043856
180	0x3c77c0e2	0.01512167
181	0xbd7f15a0	-0.062276483
182	0x3d0f31f6	0.034959756
183	0xbd44f35b	-0.048083644
184	0x3c3fef9b	0.011714841
185	0xbba26357	-0.00495569
186	0xbde73459	-0.112892814
187	0xbd33765e	-0.043814056
188	0xbd3a660d	-0.04550748
189	0x3d14833f	0.03625798
190	0xbddbf4b7	-0.10740035
191	0xbda5442b	-0.08069643
192	0x3d45c490	0.04828316
193	0xbd7270de	-0.05918967
194	0x3ca34235	0.01992903
195	0xbd0969d8	-0.033548206
196	0xbdc33244	-0.09531072
197	0x3cf6945d	0.030100042
198	0xba9c9afd	-0.0011948046
199	0xbb9a8c26	-0.004716414
200	0xbccfa932	-0.025349233
201	0x3d2b5ceb	0.04183666
202	0xbcdda3fd	-0.027055735
203	0xbd854d13	-0.06508841
204	0xbb344c9c	-0.0027511483
205	0xbca09727	-0.019603325
206	0x3dc25dfb	0.094905816
207	0x3c8fd708	0.01755859
208	0xbd4c34e8	-0.049855143
209	0x3c8cbc78	0.017179713
210	0xbc84106d	-0.016121114
211	0xbbd43b40	-0.0064767897
212	0x3d2b2bbb	0.04178975
213	0xbcb7c62a	-0.02243336
214	0xbbc43fdc	-0.005989058
215	0xbd3d2aab	-0.04618327
216	0xbd4dc9bf	-0.05024123
217	0x3d03274c	0.0320199
218	0x3d87a296	0.06622808
219	0x3c86cb0a	0.016454238
220	0xbcebad32	-0.02876911
221	0xbbc41037	-0.0059833783
222	0x3d8d4409	0.06897742
223	0xbd44bf19	-0.048033807
224	0x3d0ec94f	0.03485995
225	0xbcd2e9cd	-0.02574625
226	0xbb90b6c7	-0.00441632
227	0xbb7605dc	-0.0037540114
228	0xbc79e124	-0.015251432
229	0x3d8896df	0.066694014
230	0xbd4a3e9a	-0.049376108
231	0x3d082615	0.033239443
232	0x3d630857	0.055427875
233	0x3da050c8	0.07827908
234	0xbd81de9e	-0.06341289
235	0x3cadbcd9	0.021208214
236	0xbc1cf77d	-0.00958049
237	0xbcd52cd0	-0.026022345
238	0xbd28fc14	-0.041256025
239	0x3d804bf0	0.06264484
240	0xbcb51811	-0.022106202
241	0x3d04751c	0.032338247
242	0x3de01503	0.10941508
243	0xbc311036	-0.010807088
244	0xbd25bb8a	-0.040462054
245	0xbd332e1b	-0.04374514
246	0x3d233fc9	0.039855752
247	0x3ce24920	0.02762276
248	0x3d2c84c1	0.04211879
249	0xbd4b3856	-0.049614273
250	0x3d53f855	0.0517505
251	0x3d80164d	0.062542535
252	0x3d4e111d	0.05030929
253	0x3cd2c7b2	0.025729988
254	0x3d975bc3	0.07390549
255	0x3c59fea9	0.013305345

while/MatMul f4 [512, 128]
0	0xbc942446	-0.018083703
1	0x3c9fe2d3	0.019517338
2	0x3deebac1	0.11656714
3	0x39d1173f	0.00039880906
4	0x3db34ce0	0.08754897
5	0x3dd28527	0.10279303
6	0x3dac6c6d	0.08419118
7	0xbd5d5d06	-0.054043792
8	0x3d4d9d65	0.05019893
9	0x3dde2488	0.108468115
10	0x3d864aaa	0.0655721
11	0xbd0d601f	-0.034515496
12	0xbd06b6dc	-0.032889232
13	0x3dad4946	0.084612414
14	0xbd7cbae2	-0.061701663
15	0xbc880a17	-0.016606374
16	0x3d451887	0.048119094
17	0xbdb83fc9	-0.08996541
18	0x3d9c2d55	0.07625834
19	0x3d237ecb	0.03991584
20	0xbccc13da	-0.02491181
21	0xbd266373	-0.040622186
22	0xbd1df74f	-0.03856593
23	0x3da5a490	0.080880284
24	0x3d2289b6	0.039682113
25	0xbd09165f	-0.0334686
26	0x3d6802db	0.05664335
27	0xbd1358c5	-0.03597333
28	0x3d95688f	0.072953336
29	0x3cbd072f	0.023074714
30	0x3ce16312	0.02751306
31	0xbd5e853f	-0.054326292
32	0xbd23d079	-0.039993737
33	0xbd0dc09a	-0.034607507
34	0x3bcad224	0.0061896015
35	0x3d35c1d1	0.04437429
36	0x3d8f0b62	0.06984593
37	0x3d70ca0e	0.058786444
38	0xbd3bd6ee	-0.04585927
39	0x3d206953	0.039162945
40	0xbd444ff4	-0.04792781
41	0xbc3ccdb2	-0.011523651
42	0x3dd83f41	0.1055894
43	0xbd8c51eb	-0.06851562
44	0xbdb3648f	-0.087594144
45	0xbd340877	-0.043953385
46	0xbc7fbad1	-0.015608505
47	0xbcfb9434	-0.030710317
48	0x3ccd556f	0.025065152
49	0x3d0c3c61	0.03423727
50	0xbd8f19f5	-0.06987373
51	0x3d9af498	0.07566184
52	0x3d5a65e0	0.05331981
53	0x3db1d3bf	0.086829655
54	0x3d46d38e	0.048541598
55	0xbc913788	-0.017726675
56	0x3da75686	0.081708
57	0xbd033a36	-0.032037936
58	0x3defdcef	0.117120616
59	0xbde60127	-0.112306885
60	0x3da72d21	0.081629045
61	0x3d0817c0	0.033225775
62	0x3ca0582b	0.019573292
63	0xbd3bc51f	-0.045842286
64	0x3cf4442a	0.02981766
65	0x3cb7ba89	0.022427814
66	0xbd12219f	-0.035676595
67	0xbc00d3fc	-0.007863041
68	0x3d845f04	0.06463435
69	0xbd1a0cbb	-0.037609797
70	0xbd5d5cc1	-0.054043535
71	0xbdc9802f	-0.09838902
72	0x3db3d2d8	0.0878045
73	0x3c31fc5f	0.010863393
74	0x3de67030	0.11251867
75	0x3da64e28	0.08120376
76	0x3d0fb974	0.03508897
77	0xbcde0fac	-0.027107082
78	0x3d0ad551	0.03389484
79	0x3a8d2637	0.0010768835
80	0x3d1e9a6d	0.03872149
81	0x3cdadf3a	0.02671777
82	0xba3c728d	-0.00071887
83	0xbb1b347a	-0.0023682402
84	0xbcdaa459	-0.026689695
85	0xbc969a3f	-0.018384097
86	0x3d25309c	0.04032956
87	0xbc4a6116	-0.012352249
88	0x3d769ccf	0.060208138
89	0x3d9af355	0.07565943
90	0x3acdbee1	0.0015697145
91	0x3d3b3ab8	0.045710295
92	0x3c48877c	0.012239333
93	0xbd16fc37	-0.036861625
94	0xbd7994b6	-0.060932837
95	0x3db38e1c	0.087673396
96	0x3d04c6cd	0.032416154
97	0xbc94b1ed	-0.018151248
98	0xbd005954	-0.03133519
99	0xbc22b8c6	-0.009931749
100	0xbd5a7916	-0.053338133
101	0xbd24f8e5	-0.040276427
102	0x3d0373e2	0.032092936
103	0xbd7a17af	-0.061057743
104	0x3dcc39bc	0.099719495
105	0x3b8a940a	0.0042290734
106	0x3da860a9	0.082215615
107	0xbc1b08a1	-0.0094625065
108	0xbc813345	-0.015771518
109	0xbd9d4243	-0.07678654
110	0x3dc95d7f	0.09832286
111	0xbce99790	-0.028514653
112	0x3ba98f54	0.0051745567
113	0x3da97309	0.08273894
114	0xbcd96aaf	-0.026540129
115	0xbcf6ee2d	-0.030142868
116	0xbc68377e	-0.014173387
117	0x3d8279d6	0.063708946
118	0x3d83f52c	0.06443247
119	0x3d17af7e	0.037032597
120	0x3aa5c73d	0.0012647879
121	0xbc8c86ca	-0.017154116
122	0x3d97c653	0.07410874
123	0xbd1956de	-0.03743636
124	0x3dad1a45	0.08452276
125	0x3dcb1822	0.09916712
126	0x3d9d15ed	0.07670198
127	0xbae41bcf	-0.0017403307
128	0xbce98008	-0.028503433
129	0xbdfb8581	-0.12281323
130	0xbd78822b	-0.060671013
131	0x3d160010	0.036621153
132	0xbd34b79a	-0.04412041
133	0xbd9f9c4c	-0.07793483
134	0x3de13374	0.10996142
135	0xbd0bd913	-0.034142565
136	0x3c106666	0.008813476
137	0xbce09472	-0.027414534
138	0x3b87e475	0.0041471072
139	0x3dac17cd	0.08402977
140	0xbcbdbcba	-0.02316128
141	0xbda0b497	-0.07846945
142	0xbd9fa102	-0.07794382
143	0x3cbc2c44	0.022970326
144	0xbdf5f890	-0.120103
145	0x3d73b4ff	0.059498783
146	0xbd6c8abb	-0.05774949
147	0xbcc7c884	-0.024387605
148	0x3aa7e4f1	0.0012809319
149	0xbcc95493	-0.024576461
150	0xbbdeb7d6	-0.0067968173
151	0x3caf1f01	0.021377089
152	0xbd547b4c	-0.051875398
153	0xbca1e3c0	-0.01976192
154	0xbd646641	-0.05576158
155	0xbdd2e892	-0.102982655
156	0xbd96f031	-0.073700316
157	0x3da153ca	0.078773096
158	0x3ca45ab5	0.020062784
159	0x3d8c6e65	0.068569936
160	0xbdd2c6a5	-0.10291795
161	0xbd8a30ef	-0.067476146
162	0x3d940a72	0.07228555
163	0x3cb24ed6	0.021766108
164	0x3d01877e	0.031623356
165	0xbdc36446	-0.0954061
166	0xbcce476a	-0.025180537
167	0xbdb9389b	-0.09044
168	0xbcfbfad5	-0.030759254
169	0x3cf0833d	0.029359454
170	0xbcd77621	-0.026301445
171	0x3d8b450e	0.068002805
172	0x3c43b589	0.011945137
173	0xbd34e1f5	-0.044160802
174	0xbc7e509f	-0.015522151
175	0x3c14a501	0.009072543
176	0x3c57a083	0.013160828
177	0x3d98bb26	0.07457571
178	0xbc67f9b2	-0.014158653
179	0xbd7271b1	-0.059190456
180	0xbdf61a0b	-0.12016686
181	0xbcd1c5c4	-0.025606997
182	0x3d0e3ac6	0.03472402
183	0xbdc9cb07	-0.098531775
184	0x3e0af620	0.13570452
185	0xbd08cfbe	-0.033401243
186	0xbd59274c	-0.053015992
187	0xbd951ab7	-0.07280486
188	0x3c954b59	0.018224405
189	0xbd6db8df	-0.058037635
190	0x3cdd08c4	0.026981719
191	0x3b9a7061	0.0047131036
192	0x3d57b44b	0.052662175
193	0xbd8ac12b	-0.06775125
194	0xbd5c3bd1	-0.053767983
195	0xbbf6bfe8	-0.007530201
196	0x3cb9ae7d	0.02266621
197	0xbdc6a994	-0.09700313
198	0xbd44d354	-0.0480531
199	0x3cf89460	0.030344188
200	0xbe0ec8ae	-0.1394374
201	0x3d9f5e5c	0.077816695
202	0x3ce48116	0.027893584
203	0x3d951a43	0.072804
204	0x3d67ffa6	0.05664029
205	0xbd8c4d55	-0.068506874
206	0xbddb370e	-0.1070386
207	0xbcb76671	-0.022387715
208	0xbd90c849	-0.07069451
209	0x3d3df945	0.0463803
210	0x3dc36cbf	0.09542226
211	0xbb364d3a	-0.0027817027
212	0x3d4ea8d0	0.05045396
213	0xba8f0be8	-0.0010913583
214	0x3d8df12e	0.06930767
215	0x3d694913	0.056954455
216	0x3da9f5fd	0.08298872
217	0xbdd32e91	-0.10311616
218	0xbd998e72	-0.074978724
219	0x3d0e930f	0.034808215
220	0xbde07c89	-0.10961253
221	0xbde8edb3	-0.113734625
222	0xbcd629e6	-0.026143026
223	0xbd97ae21	-0.07406259
224	0xbbdbff84	-0.0067138094
225	0xbd761bbd	-0.060085047
226	0xbb810ad8	-0.0039380603
227	0x3cb827eb	0.022479972
228	0x3d1e5522	0.038655408
229	0x3d876c7e	0.0661249
230	0x3bd06096	0.00635917
231	0xbbf9b47d	-0.007620393
232	0x3dabb734	0.083845526
233	0xbd9a32be	-0.075292096
234	0x3bd8bd41	0.0066143577
235	0x3c4f9fec	0.012672406
236	0x3bc1cab0	0.005914055
237	0xbd9f2e55	-0.07772509
238	0x3ceab017	0.02864842
239	0xbddebfb7	-0.108764105
240	0x3d530d97	0.051526632
241	0xbdbf96bf	-0.093549244
242	0xbdff6f25	-0.12472371
243	0xbdc5169c	-0.09623453
244	0x3d421343	0.04738165
245	0x3d6bdca8	0.05758348
246	0x3d957c14	0.07299057
247	0x3d21d0ad	0.03950565
248	0x3cd835e6	0.026392888
249	0x3d15feb6	0.036619864
250	0xbdf0d9bc	-0.117602795
251	0x3cceb64f	0.025233416
252	0x3cc87f79	0.024474846
253	0x3d53172c	0.05153577
254	0x3d60d276	0.05488821
255	0x3d1b07e3	0.03784932
