python/handrate-model-decoder.tflite (tflite, 279804 bytes, 5 tensors)

decoder_lstm/lstm_cell_1/bias f4 [512]
00000000: e6fa 2e3d 9e67 f33d 5848 463b 5b3b 733d
00000010: f369 ad3c 0b81 c1bb 9b3a 103e 0ad8 c33d
00000020: e4c4 6e3e cae1 863c e76d d83c e64b 7b3d
00000030: bc1e a3b9 127d 823c ab9c 293d 9537 c13c
00000040: e0ec c23d 6ac1 5e3e 4d9b 6f3b 9d13 fa3c
00000050: 100c ebbb a9bb 113e fcad cb3d 9d42 763d
00000060: b83a 3fbc 6860 143e 6823 023e 30ee 1fbc
00000070: fc12 363c eea8 903d 2cb3 1d3d d8e5 133d
00000080: 11bc ba3c 1050 adbc f0ec dcbb 9d06 2f3e
00000090: e1b8 6e3d 68db 5e3c 7868 ca3d 9813 0c3e
000000a0: 2ef3 0b3d 0bb5 3abd f729 d73d d486 8a3d
000000b0: 4d55 0dbc 844c 49bb 6712 693d 7692 653e
000000c0: af73 3c3b 89e3 793c 6d3d 3f3c 1a15 b03d
000000d0: a2ad 0f3d e92e debc 583d ec3c a6e9 9fbb
000000e0: d6f8 753d ab4b 283e 3c20 153b fec3 633d
000000f0: 5d7c 1d3b 0f11 593e 559d 643d 9264 cd3d
00000100: 82ad 23bc 4f34 0fba 0619 a83d 87f8 f2bc
00000110: 4326 093e 2918 ce3c 1386 363c aac9 183e
00000120: fe54 683d fa7b 443d f37a 3d3b d27e 063c
00000130: e2c9 353c c750 25bc 5671 163b 8346 7b3d
00000140: 47b8 fd3c 9ede 483e 6e44 f43d 0475 d4bc
00000150: 94d6 30ba 650f f23d 4875 313d 653a 2b3e
00000160: a7cd 223e f820 f4bb 1eef 863d ff53 4a3a
00000170: d5d1 163e f541 07bd c7a5 233d d73e cb3c
00000180: fa7b 573b 3916 7e3c 1dda 5d3c 58df 05bc
00000190: d3ce 3e3c f0c3 d03c 03b3 d33d d723 143c
000001a0: 7121 e93c a162 7339 1b3b 933d 759b 143d
000001b0: 9f57 9b3d 7a0a e33d b278 e43d d366 8f3d
000001c0: 2a6a 2fbc 3bd5 283d 5650 2c3d 3bb6 d13c
000001d0: e490 b9bc d38f 863d 7da1 8cbb c50f 23bb
000001e0: 1c5a e83d 3bd1 563d 54c6 803c 90fd 103e
000001f0: a392 9e3c 206f 2b3e 3637 643d d80e 3f3d
00000200: ab27 7e3f 8b20 783f d156 853f 7b58 813f
00000210: d991 843f edfe 7e3f 6e81 753f 6c51 763f
00000220: 3fe8 763f 855e 863f 4f7a 823f 0c78 873f
00000230: 7e19 7f3f 7182 833f efbc 7e3f 6889 7c3f
00000240: ba20 853f 832e 733f ce1e 823f 2c3a 823f
00000250: af6e 7f3f 95b4 773f 15da 6c3f 1e19 813f
00000260: ae36 813f 3ec8 6e3f a0f6 7a3f 1054 853f
00000270: 278c 7f3f eb82 8a3f 5b86 873f 1b4f 873f
00000280: 3cb8 833f 650f 7f3f 1224 863f 281a 723f
00000290: 5ca7 8a3f 8c80 843f 7c39 783f 692a 783f
000002a0: 7e11 833f 95e2 743f 3152 763f 8798 663f
000002b0: 6452 7a3f e1de 763f 2596 803f 4aa3 733f
000002c0: c9ab 803f 30fe 873f a8c4 833f 2543 773f
000002d0: 28be 833f 75bc 823f b4cb 843f 9211 7e3f
000002e0: c9db 813f 0fff 763f 3eb5 7c3f c171 7a3f
000002f0: 0b00 743f 4502 813f c7b9 793f 676d 7a3f
00000300: b387 803f c3ef 7f3f 7865 703f 66a2 8b3f
00000310: 3081 783f 3b61 883f dea2 803f 3e8d 753f
00000320: 409f 813f d190 7d3f 629c 823f b50d 813f
00000330: cc40 843f 9f77 813f 3e84 7d3f e9f3 773f
00000340: 1fa8 7a3f aa3b 753f 52b9 753f 3088 753f
00000350: 5f0f 783f b2fe 7a3f f790 813f 0c2c 723f
00000360: 28d3 753f 2f4e 7e3f dd54 8a3f ff53 803f
00000370: b3ff 713f 3ff5 883f 00dc 813f 5a94 843f
00000380: 6dbf 853f 8d11 803f af9d 803f 9e3c 823f
00000390: 9caf 843f 746c 823f 12aa 783f 67cc 823f
000003a0: 1ecd 863f adef 7c3f df49 783f 48be 853f
000003b0: b8eb 823f 5a3c 743f 05df 783f 9b57 7c3f
000003c0: cf19 803f 1e97 813f f254 7a3f e318 843f
000003d0: 4bf2 803f c201 843f 8f11 813f f6ff 803f
000003e0: 37b0 7f3f 2bd2 793f dff2 823f 1fa9 7b3f
000003f0: 9777 853f e8e6 6f3f 8ed9 7f3f 44a9 7e3f
0.042719744 0.11884998 0.0030255523 0.059382778 0.021168685 -0.0059052757 0.14084856 0.095626906
0.23317295 0.016465086 0.026419593 0.06135168 -0.00031112682 0.015928779 0.041409176 0.023586074
0.095178366 0.21753469 0.0036561072 0.03052693 -0.007173069 0.14231743 0.09945294 0.06012212
-0.0116717145 0.14489901 0.12708819 -0.009761378 0.011112925 0.07063471 0.03850095 0.036107868
0.022794755 -0.02115634 -0.0067421123 0.17092367 0.058281783 0.013602115 0.09883207 0.1367935
0.03416746 -0.045582812 0.10506051 0.06763998 -0.008626294 -0.0030715773 0.056902315 0.22419152
0.0028755476 0.0152520025 0.01167236 0.08597775 0.0350777 -0.027121978 0.028837845 -0.004880148
0.06005176 0.16435115 0.002275481 0.055606835 0.0024030425 0.21197914 0.055814106 0.10028948
-0.009990098 -0.00054628117 0.08207898 -0.029659523 0.13393502 0.025158005 0.011140364 0.14920679
0.05672168 0.047969796 0.0028912395 0.008208947 0.011095496 -0.01009006 0.0022955737 0.061346542
0.03097166 0.19616172 0.119271144 -0.025934704 -0.0006745842 0.118193425 0.04332474 0.16721494
0.15898763 -0.0074502192 0.06588577 0.0007718205 0.14728482 -0.033021886 0.03995302 0.024810238
0.0032880292 0.015508228 0.013540772 -0.008170925 0.01164599 0.025484055 0.10336878 0.009041748
0.028458329 0.00023211028 0.07189008 0.036281068 0.07585072 0.110859826 0.11155833 0.07002034
-0.010706464 0.041218977 0.0420688 0.02559959 -0.022652097 0.06570401 -0.004291712 -0.0024881226
0.11345312 0.05244563 0.01571957 0.14159226 0.019357031 0.1674161 0.055716716 0.046645015
0.9927928 0.96924657 1.0417119 1.0105127 1.0357009 0.99607736 0.9590062 0.9621799
0.9644813 1.0497595 1.0193576 1.058351 0.99648273 1.0274183 0.9950704 0.98647165
1.0400612 0.94992846 1.0165651 1.0174003 0.99778265 0.9675992 0.92520267 1.008579
1.0094812 0.93274295 0.9803257 1.0416279 0.9982323 1.0821203 1.0587877 1.0571016
1.0290599 0.99632865 1.0479758 0.9457116 1.0832324 1.0351729 0.96962714 0.9693971
1.0239713 0.95658237 0.96219164 0.9007649 0.9778197 0.96433836 1.004582 0.95171034
1.0052425 1.0624447 1.029439 0.9658683 1.0292406 1.0213763 1.0374665 0.9924556
1.0145198 0.9648294 0.98714054 0.97829825 0.95312566 1.0078818 0.975491 0.97823185
1.0041412 0.9997522 0.9390483 1.0908935 0.97072124 1.0654672 1.0049703 0.95918643
1.0126724 0.990491 1.0203974 1.0082308 1.0332274 1.011463 0.9902991 0.9685655
0.9791278 0.95794165 0.959859 0.9591093 0.96898454 0.98044884 1.0122365 0.9459846
0.96025324 0.9933805 1.0807148 1.0025634 0.9453079 1.0699843 1.0145264 1.0357773
1.0449044 1.0005356 1.0048121 1.0174749 1.0366092 1.0189347 0.97134507 1.0218629
1.0531347 0.98803216 0.9698772 1.0448694 1.0228186 0.9540459 0.972153 0.98571175
1.0007876 1.0124242 0.97785866 1.0320095 1.0073942 1.0313036 1.0083483 1.0078113
0.9987826 0.97586316 1.0230368 0.98304933 1.0427121 0.9371171 0.9994134 0.9947703

std.constant6 f4 [1, 128]
00000000: 6767 64be 56d1 c13e 5cf3 943d 1994 433e
00000010: 8045 503e 762d 3abe 57b5 f5be e4c4 b43e
00000020: 5203 08bf 1251 723d 9691 833e 124b babd
00000030: f8cd c3bd 33cb 5f3e 9dd3 9dbe 19fa 20be
00000040: 7857 01be 6360 ec3e ad3f 82be 05f7 cabd
00000050: 9aef 403e 5232 f9be 8a61 bcbe c1f9 593e
00000060: 9fd0 433e b042 b9be 238a c2be b680 053e
00000070: 931d 043e 2803 393d f4e0 2d3e cb04 7bbd
00000080: 3914 9e3c 8f8d b33c b217 483e b81e d6be
00000090: 4ec0 17be c4e1 853d a332 a33e e9e1 ea3e
000000a0: ad49 143e f599 86be 7c10 e6be 51a4 8dbe
000000b0: e2f3 7b3b 356e 7ebe 4229 8bbe 5daa 00bf
000000c0: 8cb7 3dbe 2f47 833e 3352 09be e789 f0be
000000d0: ace6 5c3e 3edf 11be c78f 90bd 51e1 90be
000000e0: 605a 79be 0b26 cf3e be3f 443d 5efb ac3e
000000f0: de9f 87be be47 023e 5c58 743e 2f2a b43e
00000100: 1833 173e 853a 2a3e 7d43 e13e 7181 25be
00000110: 0879 0f3f 7e2c 7dbe 2c29 ba3d 5a36 123f
00000120: b99a be3e f00b 7abe 11cb e0bc 6bdd dabc
00000130: d28e b93d 8f77 7ebd 8ea2 0e3e f797 5a3e
00000140: fe1f 8bbe 2e06 083f e311 ecbe 8b5a 423e
00000150: 2e57 9dbd ba91 a53e 2517 22be 243f e43e
00000160: faaa 0e3f 6bbf 8ebd 9b6a 9f3d e992 eabd
00000170: 724b ca3e 723e ed3d 257b 52be 8e63 39be
00000180: 3565 893e c6e6 933d ee93 103e 8c87 a6bc
00000190: d1b7 54be 2961 2c3e dd74 b63e d62f b33d
000001a0: cf5c a2bd 8df2 903e 499b 7b3e ae8e af3d
000001b0: b1ef bcbe 4cdb b73e da16 cf3e 5403 a93e
000001c0: 1d29 02bd b5a4 12be 85b8 313e 7952 b8bc
000001d0: 980e d2bd 0516 f5bd a073 51be 1bb1 733e
000001e0: 50bc aa3e 8266 b0be 4d22 453e e67e e53e
000001f0: beac fabd 43b4 ca3e 2dd4 a23e 3675 02be
-0.2230507 0.37855023 0.072729796 0.19099464 0.20339012 -0.18181404 -0.47989914 0.35306466
-0.53130066 0.059159346 0.2569701 -0.0909635 -0.0956077 0.21854858 -0.3082551 -0.15720405
-0.12631023 0.46167287 -0.25439206 -0.099103965 0.188414 -0.48671204 -0.36793166 0.2128668
0.19122551 -0.3618369 -0.37996015 0.1303738 0.12901907 0.045169026 0.16980344 -0.061283868
0.019296752 0.021918086 0.19540289 -0.41820312 -0.14819452 0.06537202 0.3187457 0.4587548
0.1448123 -0.26289335 -0.44934452 -0.27664426 0.0038444926 -0.24846728 -0.27179915 -0.50259954
-0.18527049 0.25640246 -0.13410263 -0.4698021 0.2157237 -0.14245316 -0.07058673 -0.28296903
-0.24350882 0.40458712 0.04791235 0.33785528 -0.26489156 0.1272268 0.23861831 0.35188434
0.14765584 0.16623886 0.43996802 -0.16162659 0.56044054 -0.24724004 0.09089884 0.57114184
0.3722742 -0.24418616 -0.02744058 -0.026716908 0.09060444 -0.06212574 0.13929197 0.21347032
-0.27172846 0.5313443 -0.46107396 0.18979852 -0.07682644 0.32337743 -0.15829141 0.44579422
0.5572964 -0.06970104 0.07784005 -0.11453802 0.39510685 0.11584176 -0.20554788 -0.18104383
0.26835027 0.07221751 0.1411893 -0.020328306 -0.20773245 0.16833939 0.35636035 0.08749358
-0.07927858 0.28310052 0.24570955 0.08572136 -0.3690162 0.35909498 0.40447122 0.33010352
-0.03177749 -0.14320643 0.17355545 -0.022500264 -0.1025669 -0.119670905 -0.20454264 0.23798029
0.33346796 -0.34453207 0.19251366 0.44823378 -0.12239979 0.39590654 0.31802502 -0.12740025

decoder_lstm/lstm_cell_1/bias1 f4 [512]
00000000: e6fa 2e3d 9e67 f33d 5848 463b 5b3b 733d
00000010: f369 ad3c 0b81 c1bb 9b3a 103e 0ad8 c33d
00000020: e4c4 6e3e cae1 863c e76d d83c e64b 7b3d
00000030: bc1e a3b9 127d 823c ab9c 293d 9537 c13c
00000040: e0ec c23d 6ac1 5e3e 4d9b 6f3b 9d13 fa3c
00000050: 100c ebbb a9bb 113e fcad cb3d 9d42 763d
00000060: b83a 3fbc 6860 143e 6823 023e 30ee 1fbc
00000070: fc12 363c eea8 903d 2cb3 1d3d d8e5 133d
00000080: 11bc ba3c 1050 adbc f0ec dcbb 9d06 2f3e
00000090: e1b8 6e3d 68db 5e3c 7868 ca3d 9813 0c3e
000000a0: 2ef3 0b3d 0bb5 3abd f729 d73d d486 8a3d
000000b0: 4d55 0dbc 844c 49bb 6712 693d 7692 653e
000000c0: af73 3c3b 89e3 793c 6d3d 3f3c 1a15 b03d
000000d0: a2ad 0f3d e92e debc 583d ec3c a6e9 9fbb
000000e0: d6f8 753d ab4b 283e 3c20 153b fec3 633d
000000f0: 5d7c 1d3b 0f11 593e 559d 643d 9264 cd3d
00000100: 82ad 23bc 4f34 0fba 0619 a83d 87f8 f2bc
00000110: 4326 093e 2918 ce3c 1386 363c aac9 183e
00000120: fe54 683d fa7b 443d f37a 3d3b d27e 063c
00000130: e2c9 353c c750 25bc 5671 163b 8346 7b3d
00000140: 47b8 fd3c 9ede 483e 6e44 f43d 0475 d4bc
00000150: 94d6 30ba 650f f23d 4875 313d 653a 2b3e
00000160: a7cd 223e f820 f4bb 1eef 863d ff53 4a3a
00000170: d5d1 163e f541 07bd c7a5 233d d73e cb3c
00000180: fa7b 573b 3916 7e3c 1dda 5d3c 58df 05bc
00000190: d3ce 3e3c f0c3 d03c 03b3 d33d d723 143c
000001a0: 7121 e93c a162 7339 1b3b 933d 759b 143d
000001b0: 9f57 9b3d 7a0a e33d b278 e43d d366 8f3d
000001c0: 2a6a 2fbc 3bd5 283d 5650 2c3d 3bb6 d13c
000001d0: e490 b9bc d38f 863d 7da1 8cbb c50f 23bb
000001e0: 1c5a e83d 3bd1 563d 54c6 803c 90fd 103e
000001f0: a392 9e3c 206f 2b3e 3637 643d d80e 3f3d
00000200: ab27 7e3f 8b20 783f d156 853f 7b58 813f
00000210: d991 843f edfe 7e3f 6e81 753f 6c51 763f
00000220: 3fe8 763f 855e 863f 4f7a 823f 0c78 873f
00000230: 7e19 7f3f 7182 833f efbc 7e3f 6889 7c3f
00000240: ba20 853f 832e 733f ce1e 823f 2c3a 823f
00000250: af6e 7f3f 95b4 773f 15da 6c3f 1e19 813f
00000260: ae36 813f 3ec8 6e3f a0f6 7a3f 1054 853f
00000270: 278c 7f3f eb82 8a3f 5b86 873f 1b4f 873f
00000280: 3cb8 833f 650f 7f3f 1224 863f 281a 723f
00000290: 5ca7 8a3f 8c80 843f 7c39 783f 692a 783f
000002a0: 7e11 833f 95e2 743f 3152 763f 8798 663f
000002b0: 6452 7a3f e1de 763f 2596 803f 4aa3 733f
000002c0: c9ab 803f 30fe 873f a8c4 833f 2543 773f
000002d0: 28be 833f 75bc 823f b4cb 843f 9211 7e3f
000002e0: c9db 813f 0fff 763f 3eb5 7c3f c171 7a3f
000002f0: 0b00 743f 4502 813f c7b9 793f 676d 7a3f
00000300: b387 803f c3ef 7f3f 7865 703f 66a2 8b3f
00000310: 3081 783f 3b61 883f dea2 803f 3e8d 753f
00000320: 409f 813f d190 7d3f 629c 823f b50d 813f
00000330: cc40 843f 9f77 813f 3e84 7d3f e9f3 773f
00000340: 1fa8 7a3f aa3b 753f 52b9 753f 3088 753f
00000350: 5f0f 783f b2fe 7a3f f790 813f 0c2c 723f
00000360: 28d3 753f 2f4e 7e3f dd54 8a3f ff53 803f
00000370: b3ff 713f 3ff5 883f 00dc 813f 5a94 843f
00000380: 6dbf 853f 8d11 803f af9d 803f 9e3c 823f
00000390: 9caf 843f 746c 823f 12aa 783f 67cc 823f
000003a0: 1ecd 863f adef 7c3f df49 783f 48be 853f
000003b0: b8eb 823f 5a3c 743f 05df 783f 9b57 7c3f
000003c0: cf19 803f 1e97 813f f254 7a3f e318 843f
000003d0: 4bf2 803f c201 843f 8f11 813f f6ff 803f
000003e0: 37b0 7f3f 2bd2 793f dff2 823f 1fa9 7b3f
000003f0: 9777 853f e8e6 6f3f 8ed9 7f3f 44a9 7e3f
0.042719744 0.11884998 0.0030255523 0.059382778 0.021168685 -0.0059052757 0.14084856 0.095626906
0.23317295 0.016465086 0.026419593 0.06135168 -0.00031112682 0.015928779 0.041409176 0.023586074
0.095178366 0.21753469 0.0036561072 0.03052693 -0.007173069 0.14231743 0.09945294 0.06012212
-0.0116717145 0.14489901 0.12708819 -0.009761378 0.011112925 0.07063471 0.03850095 0.036107868
0.022794755 -0.02115634 -0.0067421123 0.17092367 0.058281783 0.013602115 0.09883207 0.1367935
0.03416746 -0.045582812 0.10506051 0.06763998 -0.008626294 -0.0030715773 0.056902315 0.22419152
0.0028755476 0.0152520025 0.01167236 0.08597775 0.0350777 -0.027121978 0.028837845 -0.004880148
0.06005176 0.16435115 0.002275481 0.055606835 0.0024030425 0.21197914 0.055814106 0.10028948
-0.009990098 -0.00054628117 0.08207898 -0.029659523 0.13393502 0.025158005 0.011140364 0.14920679
0.05672168 0.047969796 0.0028912395 0.008208947 0.011095496 -0.01009006 0.0022955737 0.061346542
0.03097166 0.19616172 0.119271144 -0.025934704 -0.0006745842 0.118193425 0.04332474 0.16721494
0.15898763 -0.0074502192 0.06588577 0.0007718205 0.14728482 -0.033021886 0.03995302 0.024810238
0.0032880292 0.015508228 0.013540772 -0.008170925 0.01164599 0.025484055 0.10336878 0.009041748
0.028458329 0.00023211028 0.07189008 0.036281068 0.07585072 0.110859826 0.11155833 0.07002034
-0.010706464 0.041218977 0.0420688 0.02559959 -0.022652097 0.06570401 -0.004291712 -0.0024881226
0.11345312 0.05244563 0.01571957 0.14159226 0.019357031 0.1674161 0.055716716 0.046645015
0.9927928 0.96924657 1.0417119 1.0105127 1.0357009 0.99607736 0.9590062 0.9621799
0.9644813 1.0497595 1.0193576 1.058351 0.99648273 1.0274183 0.9950704 0.98647165
1.0400612 0.94992846 1.0165651 1.0174003 0.99778265 0.9675992 0.92520267 1.008579
1.0094812 0.93274295 0.9803257 1.0416279 0.9982323 1.0821203 1.0587877 1.0571016
1.0290599 0.99632865 1.0479758 0.9457116 1.0832324 1.0351729 0.96962714 0.9693971
1.0239713 0.95658237 0.96219164 0.9007649 0.9778197 0.96433836 1.004582 0.95171034
1.0052425 1.0624447 1.029439 0.9658683 1.0292406 1.0213763 1.0374665 0.9924556
1.0145198 0.9648294 0.98714054 0.97829825 0.95312566 1.0078818 0.975491 0.97823185
1.0041412 0.9997522 0.9390483 1.0908935 0.97072124 1.0654672 1.0049703 0.95918643
1.0126724 0.990491 1.0203974 1.0082308 1.0332274 1.011463 0.9902991 0.9685655
0.9791278 0.95794165 0.959859 0.9591093 0.96898454 0.98044884 1.0122365 0.9459846
0.96025324 0.9933805 1.0807148 1.0025634 0.9453079 1.0699843 1.0145264 1.0357773
1.0449044 1.0005356 1.0048121 1.0174749 1.0366092 1.0189347 0.97134507 1.0218629
1.0531347 0.98803216 0.9698772 1.0448694 1.0228186 0.9540459 0.972153 0.98571175
1.0007876 1.0124242 0.97785866 1.0320095 1.0073942 1.0313036 1.0083483 1.0078113
0.9987826 0.97586316 1.0230368 0.98304933 1.0427121 0.9371171 0.9994134 0.9947703

while/MatMul_1 f4 [512, 128]
00000000: 0b65 a73d 3fa2 c1bd 2677 9ebd 4801 52bd
00000010: 49bb fd3c d5f9 ff3d b8f7 563d 9c06 1abe
00000020: 00a4 b53d 27da 6c3c e480 333d 6a21 d2bb
00000030: 0c08 acbd 66ea cebd 4f84 153d 32c7 8e3a
00000040: 20db 25bd ed0a 18bd 5c45 1bbd 8b56 9f3d
00000050: c52b dbbd 0468 1ebd c35a 4f3c ea2c bebc
00000060: cc41 f6bc 1d87 e1bc 3d02 543d 3a1d 4abc
00000070: 71f9 e5bd 382f 62bc 4140 9fbd d588 c1bd
00000080: 6419 7a3d 361d 193d 40a6 3abd dabf c13d
00000090: b7f5 863d 948e 27bd a54c a8bd bdb6 54bb
000000a0: a593 363c 2187 b63d 1240 56bc d3b3 bfbd
000000b0: 8601 c9bd 1215 ba3d 2daa f73c 81aa 903c
000000c0: 8bc5 ef3c db1b 14be b3b5 7d3c 65f9 033d
000000d0: 0d71 d8bd d6f1 8fbd 7602 023d 614e 2c3d
000000e0: 969f be3d 0c3a 7d3c f7b5 06bd 0baa 7e3d
000000f0: c7e8 babd 2029 42bd 5b10 88bd 8748 d5bd
00000100: a11a 01bd b5e6 06bd 6f22 90bd 08b9 123d
00000110: 1d4a ac3c a35b 9d3d ff01 3f3c 3768 3dba
00000120: 1d42 2bbd 9a7f 53bd 1c36 323d 6891 e6bd
00000130: 309a a1bd 77ff 7b3c 3c7a acbd 2c46 f8bc
00000140: 57b0 7b3d 9192 09bc ac59 c4bd e525 943d
00000150: 8db3 19be f881 5cbb cd5b 813d 044c 9d3d
00000160: 5f78 a6bc b065 e43c 282d 1dbd 1669 393d
00000170: 6f9a 9ebc fc8c a33d 8e97 b1bd 1b42 ad3d
00000180: 2990 edbd 09ee 883d 39b9 c93a bf36 15bd
00000190: fa68 923d decc 903d d13c 54bd 8422 cd3d
000001a0: c6f7 973d c3a2 f0bd 47ac c4bb 2da5 b6bd
000001b0: d51a 413d d7c1 bebc 419e 2b3d 22d5 973c
000001c0: 8744 023c 304d 823d 16ba 08be fb05 9e3d
000001d0: 0533 833d 9928 c2bd fe6c d83c d9c9 8dbd
000001e0: 6e11 ba3c 89ae 173d f1e0 863c 29bf ddbd
000001f0: 640a 623d e235 9fbc 4564 e9bd 16cf 88bc
00000200: e298 c9bd 7ae8 36bd c0da b2bd 53b0 d6bd
00000210: dd4a 0cbe fc26 343e 642d 8d3d 7827 09be
00000220: 2c3e 9e3d 94d8 28be d594 bf3c 7727 1f3e
00000230: 15f6 ebbd 037d 19be de87 aebd 9273 d83d
00000240: 2365 2cbe 6a03 5ebd 3d78 c5bd 1150 083e
00000250: 07d2 46be a83b 643d 58d5 2b3e 4b36 55be
00000260: f6c1 89bd ccc0 27bd ca7e 803d 49c9 acbd
00000270: 40d5 cbbd 97cf f6bc ccfe 18be 67e6 4dbd
00000280: 444a f03d 2934 5b3b 3b38 72bd 6744 f63d
00000290: a3ec c33d 1de8 99bc 9cc4 afbd cf7a f5bc
000002a0: 3fa4 ac3d 536e 143e 75fd 9e3d 542b 613c
000002b0: e64f bfbb 5047 f13d 92d6 4a3d 1c92 c7bb
000002c0: 2c92 063e 3d76 b0bd be90 e33d b2cc afbc
000002d0: 79e0 bebd 50e1 e2bd c4a1 dcbd 2e36 4d3e
000002e0: c9b7 ba3d 316a e0bd 0c7a 3ebc bc3c adbb
000002f0: 0e4e 5fbc ae30 54be f15b b3bd c89d cbbd
00000300: 226b 58bc df2a b0bd 0681 2ebc efdf 4e3d
00000310: c3bc cdbd c6a2 943d 16b3 183e d342 9dbd
00000320: 8019 2e38 e2d6 a4bc 913b a53d f1cb 723d
00000330: 20b8 61bd 7621 d63d 14f7 2fbe 7070 0abe
00000340: 04a1 e1bd 0277 acbc 213c 8d3d 6e7e 3e3d
00000350: 69db cdbd 5ff9 36bd f6d2 253e 1252 86bd
00000360: 7271 b7bd afc3 f0bd db12 cdbd 396e b33d
00000370: 8533 c2bc 2270 7fbd 504d c9bd 816e d33d
00000380: a526 5bbd b065 2f3e 1d27 80bd 7d63 4f3d
00000390: 6849 ea3d 7a10 983d d636 44be 4b5a f13c
000003a0: e591 ed3d 10a9 74bd 918c 99bd 0264 83bd
000003b0: c743 9d3b 37fb 24be 2351 07bc f171 8a3c
000003c0: 6159 a43d 540f 3f3e ea0f 85bd 8501 003e
000003d0: 91ba f53d 6701 aebd 0a34 073e a160 aabd
000003e0: 3663 0dbe ed1b a63d 0623 003e a4af 17bd
000003f0: bbaf 6fbc 7753 abbd bc28 1bbe 9b4f 0a3d
0.08173569 -0.09454774 -0.077375695 -0.051270753 0.030973094 0.124988236 0.052482337 -0.15041584
0.08869171 0.014456308 0.04382409 -0.0064126747 -0.08399972 -0.10103302 0.036503132 0.0010893105
-0.040492177 -0.037119795 -0.037907943 0.07780179 -0.10701708 -0.038673416 0.012655917 -0.023214776
-0.030060671 -0.027530247 0.051759947 -0.01233607 -0.11229218 -0.013805203 -0.07775927 -0.09449927
0.06105937 0.037381373 -0.045568705 0.09460421 0.06589835 -0.040907457 -0.08217744 -0.0032457553
0.0111436 0.089124925 -0.013076799 -0.093604706 -0.09814744 0.0908605 0.030232513 0.017659428
0.029269 -0.14463751 0.015485215 0.032220263 -0.10568438 -0.070285484 0.03174063 0.042066935
0.09307782 0.015455734 -0.03288838 0.062173884 -0.0912643 -0.0474025 -0.066437446 -0.10414224
-0.031519536 -0.032934863 -0.07037818 0.03582099 0.021031434 0.07683494 0.011658191 -0.0007225307
-0.041811097 -0.051635362 0.043508634 -0.11258203 -0.07890737 0.015380732 -0.08421752 -0.030306898
0.061447468 -0.008396761 -0.09587416 0.0723379 -0.150099 -0.0033646803 0.06316338 0.076805145
-0.02032107 0.02788052 -0.038373142 0.045266233 -0.019360749 0.07985875 -0.08671485 0.08459874
-0.11599762 0.066860266 0.0015390284 -0.036429163 0.07148929 0.07070325 -0.05181581 0.10016349
0.07420306 -0.11749794 -0.0060019824 -0.089182235 0.04714473 -0.02328579 0.04189897 0.018534247
0.0079509085 0.063623786 -0.13352236 0.077159844 0.064062156 -0.094804 0.026419159 -0.06923265
0.02271339 0.037031684 0.016464682 -0.108274765 0.05518569 -0.019434873 -0.11396078 -0.016700309
-0.09843613 -0.0446553 -0.087331295 -0.1048285 -0.13700433 0.17592996 0.06893423 -0.13393962
0.07726702 -0.16488868 0.023386398 0.15542398 -0.11521546 -0.14989094 -0.08522008 0.10568918
-0.16835456 -0.054202475 -0.09642074 0.13311793 -0.19416057 0.055720955 0.16780603 -0.20821492
-0.06726448 -0.04095535 0.06274183 -0.084368296 -0.099527836 -0.030128283 -0.14940947 -0.050268557
0.11732915 0.0033447838 -0.059135657 0.120247655 0.09566619 -0.018787438 -0.08582422 -0.029965786
0.08429765 0.1449521 0.07763187 0.01374324 -0.005838382 0.1178118 0.049521036 -0.0060904156
0.13141698 -0.08616302 0.11111592 -0.021459911 -0.093201585 -0.11078131 -0.10773042 0.20040199
0.091170855 -0.109577544 -0.011625778 -0.005286781 -0.0136294495 -0.20721695 -0.08757771 -0.09942204
-0.013209136 -0.08601927 -0.010650879 0.05050653 -0.10045769 0.07257609 0.14912066 -0.07678761
4.150858e-05 -0.020121995 0.08068002 0.059276525 -0.055107236 0.10455601 -0.17184097 -0.13519454
-0.110170394 -0.021052841 0.06896234 0.04650729 -0.10051615 -0.044671413 0.16193756 -0.065586224
-0.08957185 -0.11756074 -0.10013362 0.08761258 -0.023706207 -0.062362798 -0.09829199 0.10323811
-0.05350365 0.17128634 -0.0625746 0.05063199 0.114397824 0.07425018 -0.19161543 0.029462
0.11600093 -0.059731543 -0.07497514 -0.06415559 0.0047993395 -0.16111456 -0.008259091 0.016900035
0.0802486 0.18658191 -0.06497176 0.1250058 0.11998475 -0.08496361 0.13203445 -0.08319212
-0.13807377 0.08110795 0.1251336 -0.03703274 -0.0146293 -0.08365529 -0.15152258 0.033767324

while/MatMul f4 [512, 1]
00000000: 3b85 af3d ed10 93be 360d 43be 3b7e 5ebd
00000010: 97b8 39bd 4265 8fbe f697 2e3e 900c fd3b
00000020: a311 cb3e 9631 9bbd f3a9 603e 3257 b3bd
00000030: dd61 e43d 30e9 07be da4c b33e 51fd e2bc
00000040: 361d 133e 693f d43d 69ac 863e 48dc c8bd
00000050: e07e 95be 50b9 113e e616 f53d 25b4 07be
00000060: 035c 12be 06d1 b13e 8891 983e ced8 26bb
00000070: 9819 9cbe d4f9 dfbc f747 323d 176e 9f3c
00000080: dc3e 5e3d 1395 d5bd eee4 34be dcaa 8f3e
00000090: 8daa 863d 380b 7a3d edbb 5cbd 5acf a93d
000000a0: 4a05 a53e 60a2 8ebe aa4e 653e 9385 a73e
000000b0: 8599 16bd a37e 15bf 5b41 e73d 6711 3e3e
000000c0: 9951 88be 4fc7 9dbe 4453 dfbd 53f9 c53d
000000d0: e532 93be 24dc 733e ea9a 3c3c c3ad e4be
000000e0: ed72 0cbe 02ea ad3e 7854 f93c 21fe 753e
000000f0: 719f 0c3e c75c b53b f950 4f3e 1ce5 80bd
00000100: a7fd cebd f20b abbe 738a 443c 191a 413d
00000110: f601 7e3e 11f3 cdbd 2a95 453e a9a0 673e
00000120: b090 febc d0de b83e 7b84 e53d 92d9 9b3d
00000130: 59b9 493d 550d a2bd 6873 2bbe 9a64 b2bd
00000140: 6bcf b23e 15ee 2d3e 6c15 1b3d 0557 863e
00000150: 7c9b 273d 7bd7 1fbd d6a1 00be 87cf 3d3e
00000160: 0ecc 953e 58a7 bfbd be47 663d 4500 84be
00000170: c521 653e b18b 143e b577 653e 0477 5cbe
00000180: 6322 383e 04af a03e 4743 ecbd 2455 09bd
00000190: ab20 c5bd 9e37 263e 9159 06be e7f8 ab3d
000001a0: 37e1 09be c224 473d eb60 ea3d 46ac d63d
000001b0: 86a6 233e b1fe d2bd bf80 a33e 31dd 883e
000001c0: 90d5 d5bd 3611 acbd a2e2 353d 2184 52bd
000001d0: aee7 29be 5507 413e 27c1 cdbd acac 8dbe
000001e0: 3144 d93d e669 17bd 62fc 74bc 012c 873d
000001f0: 3ee5 883b c8e3 94bd 12c2 4fbc 8098 2f3d
00000200: b3f8 e1bd c2e0 bfbe 1541 59be ebef fabd
00000210: b6be 07be 1a03 85be ff88 8bbe 46fe 04bf
00000220: 06f3 0fbe bec8 90be 9944 af3d b556 083d
00000230: a55d 263e 37fd b4be f869 8bbd b752 78be
00000240: e215 973d 114f 78be 1678 333e e3a7 22be
00000250: a202 76be 127f 2f3d 80c2 c0bd 0b6e 04bf
00000260: 23cf 93be 5740 373e 54e0 6bbe 6284 0ebe
00000270: 63e7 a6be 3e67 4b3d 6869 e63d 4012 73bd
00000280: d2e5 653d d1aa 3ebe 7bc9 39be f9d1 d7bd
00000290: 3ca2 903d b07a 423c 133b 98be c1ca c23d
000002a0: c4a2 f53d b4ee eebe 49dd e63d 268f 003e
000002b0: a2d5 c6bd 4d1a 2abf 2811 27be e746 5abe
000002c0: 5b91 c8be b22c 56be ed26 86bc 83c0 72be
000002d0: 06f2 85be d7de 123e bd89 183c 349c 9fbe
000002e0: 1be7 0cbd cb33 04be 426b c7bd 0f76 513e
000002f0: ba92 533e a0b7 49bd 9380 c9bd c926 babe
00000300: 70e6 abbe a48f 89be fe8d a1bd ff2e 143e
00000310: 04fa 11bd 7c0c c7bc e903 103e ec7f 80bd
00000320: 19f8 e7bd ed3c 8b3e a714 d53d d04c 89bd
00000330: 48a0 c3bc f759 54be 20f5 b9be eb93 cfbe
00000340: 689b a63e 9d5d 63bd 364b 1ebe e71a 763e
00000350: cc7a c23d 267a 39be 6381 7fbd 49ec 5b3e
00000360: c989 f73d e700 ddbd c7ea 35bd bfa3 c8be
00000370: e61f b9be d57e 393e 5d52 6f3e 0938 48be
00000380: 6ce8 133e 95d0 503e edff 96be fc5c 34bd
00000390: 95bf 0dbd 5384 363e 4597 9cbe ec6f 133e
000003a0: add8 18be 6c37 643d 49c5 ca3c 2e76 d03d
000003b0: 03f9 b5bd 1b54 abbe dc69 09bd b17c 4d3e
000003c0: d29d 80be 715d 92be 49ba c7bc 6e5a 863d
000003d0: aed4 bebd 5a27 db3d ec26 723d 0534 4bbe
000003e0: 707f 203d 36ea bdbd d896 173d ecff 69be
000003f0: f3d3 073e e6e5 9cbe ed20 2bbe 11ca c3bd
0.085703336 -0.2872385 -0.19048008 -0.0543196 -0.045342054 -0.2800694 0.17050156 0.007722445
0.39661893 -0.07577817 0.2193983 -0.087568656 0.111514784 -0.13272548 0.3501957 -0.027708681
0.14366612 0.10363657 0.26303414 -0.0980764 -0.2919836 0.14230847 0.11967258 -0.13252313
-0.14292912 0.34729785 0.29798532 -0.0025458816 -0.30488276 -0.027340807 0.043525662 0.019461675
0.054259166 -0.10428824 -0.17665455 0.28060043 0.06575499 0.061045855 -0.053890157 0.08291502
0.32230598 -0.27858257 0.22393289 0.32719097 -0.0367675 -0.5839636 0.112917624 0.18561326
-0.26624754 -0.30816123 -0.109045535 0.096666954 -0.28749767 0.23814446 0.011511544 -0.4466382
-0.13715716 0.33967596 0.030435786 0.24022724 0.13732697 0.0055347416 0.20245732 -0.06293699
-0.10106974 -0.3340755 0.0119958995 0.04714403 0.24805436 -0.10056127 0.19295183 0.2261988
-0.031074852 0.36107492 0.11206909 0.076098576 0.049249027 -0.07912699 -0.16743243 -0.087105945
0.34923872 0.16985352 0.037862226 0.26238266 0.040919766 -0.039023858 -0.12561736 0.18536197
0.29257244 -0.0935809 0.056220762 -0.25781456 0.22376163 0.14506413 0.22408946 -0.21529776
0.17981867 0.31383526 -0.1153627 -0.033528462 -0.096253715 0.16232154 -0.13120104 0.08397084
-0.13464819 0.04861904 0.11444267 0.10482077 0.15981492 -0.10302485 0.31934163 0.26731256
-0.104411244 -0.0840172 0.044405587 -0.05139554 -0.16592285 0.18850453 -0.100466065 -0.276708
0.106087096 -0.036966227 -0.014952751 0.0660019 0.0041777184 -0.07270008 -0.012680547 0.042870045
-0.11033764 -0.37476164 -0.21216233 -0.12252792 -0.13256344 -0.2597893 -0.27252957 -0.5195049
-0.1405755 -0.28278154 0.08558006 0.033285815 0.1624666 -0.35349438 -0.06807321 -0.24250303
0.07377221 -0.24248911 0.17526278 -0.15884356 -0.24024442 0.042845793 -0.09412098 -0.5173041
-0.2886897 0.17895637 -0.23034793 -0.13917688 -0.3259841 0.049659006 0.112505734 -0.059343576
0.056127377 -0.18619849 -0.18143265 -0.10538096 0.07062194 0.011870071 -0.2973257 0.095113285
0.11993936 -0.4666649 0.112726755 0.12554607 -0.09708716 -0.6644638 -0.16315138 -0.2131611
-0.39173397 -0.20915487 -0.016375983 -0.2370625 -0.26161212 0.14342819 0.009310183 -0.3117386
-0.034400087 -0.12910382 -0.09737255 0.20455192 0.2066144 -0.049247384 -0.09838977 -0.36357716
-0.33574247 -0.26867402 -0.07888411 0.14471053 -0.035638824 -0.024297945 0.14063992 -0.06274399
-0.11326618 0.2719492 0.1040433 -0.06704104 -0.023880139 -0.20737444 -0.36319828 -0.4054254
0.3254044 -0.0555092 -0.15458378 0.240337 0.09496078 -0.18113002 -0.062379252 0.21476854
0.12086827 -0.10791188 -0.044413354 -0.39187428 -0.3615715 0.18114789 0.23371263 -0.19552626
0.1444413 0.20392068 -0.2949213 -0.04403399 -0.034606535 0.17823915 -0.3058416 0.14398164
-0.14926405 0.055716917 0.024752276 0.10178791 -0.08885386 -0.33462605 -0.03354822 0.20067097
-0.25120407 -0.28586915 -0.02438082 0.06560217 -0.09317909 0.10700865 0.05911915 -0.19844063
0.039184034 -0.09273188 0.03700909 -0.22851533 0.13264446 -0.3064415 -0.16711779 -0.095600255
